TD3/6_Y_TD3/EnvUAV/Net/Roll_Actor.pth (torch, 6807 bytes, 5 tensors)

actor.0.weight f4 [32, 3]
00000000: d66a b7bd 7828 7a3d b41a 3cbd e492 c93e
00000010: db4e 413d 8981 e73b 75d8 243f 6f92 d93d
00000020: 3792 533d 656b 513c 8660 033b dd02 9e39
00000030: b75d 1a3b 7898 083c 2802 5b3a 78c3 5c3f
00000040: 41b7 223d 3fab c0ba addc 553f eeaf 393d
00000050: 2a83 e5ba f6d4 06bf 3555 17bd 9397 143d
00000060: 8090 543f a150 da3d ee36 b23b 7d26 2f3f
00000070: b785 b73d 7131 cc3b f05e 0e3b 496f 6c3a
00000080: b464 1937 b504 473f c78a c03d 6df4 ac3b
00000090: bc99 e0bd 7bec 8a3d d185 de3d ab41 34bf
000000a0: 4dac 4dbe ccdc 52bb 062a 5c3f dd5e c93d
000000b0: bae8 9b3b ba94 d63b fa0b b43c 3cbc c53d
000000c0: 3904 84be 26bf 56bc 76c2 c7bd 78f0 f5bc
000000d0: 8d17 fa3a f1f6 a1bd eb50 e1bd fae9 8c3d
000000e0: f664 fa3d cf25 0e3f e183 ed3d c190 8abc
000000f0: 82d2 203c f37f ae3b e47b deba e162 153f
00000100: 580d b33d eb34 cf3b 618e 3b3e dd6c c13d
00000110: ecbc 10bc 7100 92bd 0ee1 ecbd 94a9 9d3d
00000120: 0af1 333f 3368 af3d db26 b93b 099a 403f
00000130: a4dd 853d f075 4e3c f023 693f 17e6 023c
00000140: 5717 58b9 cbb2 3d3f 87e3 be3d ea61 ba3b
00000150: 6466 a7bb cf25 bb39 4072 e03a d34d 443b
00000160: 89ee 333a efe3 d0b8 1936 503f 954a 6cbb
00000170: 52da 48b9 7ba1 283e c25f 963d e5a7 c1bd
-0.08955924 0.06107375 -0.045923904 0.3936988 0.047194343 0.0070650023 0.6439279 0.10623633
0.051653113 0.0127819525 0.0020046546 0.00030138242 0.0023554394 0.008337133 0.00083545083 0.8623576
0.039725546 -0.0014699473 0.8353985 0.045333795 -0.0017510403 -0.526687 -0.036946494 0.036277365
0.8303299 0.1065991 0.005438677 0.68418103 0.08961051 0.00623148 0.0021724068 0.00090192683
9.142957e-06 0.7774156 0.0940147 0.0052781613 -0.109668225 0.06783386 0.10865367 -0.704127
-0.20085259 -0.0032175062 0.8600162 0.09832547 0.004757968 0.0065484913 0.021978367 0.096550435
-0.25784472 -0.013107097 -0.09753887 -0.030021891 0.0019080505 -0.079084285 -0.11001762 0.06880565
0.12226288 0.5552644 0.115974195 -0.016914727 0.009815814 0.0053253113 -0.0016974178 0.58354
0.087427795 0.006323447 0.18316032 0.09444592 -0.008834105 -0.071289904 -0.11566363 0.0769836
0.7028967 0.08564796 0.005650384 0.7523504 0.06536415 0.012601361 0.9107046 0.007989428
-0.0002060806 0.7410094 0.09320741 0.005687942 -0.0051086415 0.0003569559 0.0017123893 0.0029953613
0.00068638526 -9.960669e-05 0.81332546 -0.0036055197 -0.00019154817 0.1646785 0.07342483 -0.094558515

actor.0.bias f4 [32]
00000000: 50d5 133f f293 043f 85e5 8abe 9679 01be
00000010: 8318 06bf 311c ed3d b344 f23d 509e 633f
00000020: e989 663e f072 bf3e 4004 33bd 7032 7c3e
00000030: 0e58 aa3c f1b0 c13e 6059 213e 0a2f 8cbe
00000040: 7311 2e3f 3003 0bbd 184f a8be 6235 9fbc
00000050: 5ea2 f8be 284e c93e b1dc 863e c980 1e3f
00000060: a4bc 8e3e 76ea 383d 32ca 053e d58e a33e
00000070: c621 e6be c4d0 d6be 5a85 013e 21a7 9fbe
0.57747364 0.51788247 -0.27128235 -0.12644038 -0.5238115 0.11577643 0.118295096 0.8891344
0.22513546 0.37392378 -0.043705225 0.24628615 0.02079394 0.37830308 0.1575675 -0.27379638
0.67995375 -0.033938587 -0.32872844 -0.019434635 -0.48561376 0.3931744 0.2634025 0.6191526
0.27878296 0.045145474 0.13065413 0.3194491 -0.44947642 -0.4195615 0.12648526 -0.31182197

actor.2.weight f4 [32, 32]
00000000: bf7f a83c 2392 1d3d 6fd9 053e eeec 2e3c
00000010: 5458 c5b9 65f0 783e 8ec1 9d3e 6e85 98bd
00000020: 0a56 243e aec9 cf3d f9ea e8bb 70bc 423e
00000030: 656c 1e3d dd03 b9be 1dfb 773e dfc6 ce3c
00000040: a551 483c e482 273d 6b90 933c 7ba9 eb3d
00000050: 33f3 6cbc d92d c03d d841 ed3c ad85 c03c
00000060: c22b 1c3e 89d9 913e e6bd 8b3e f2fa 0f3e
00000070: 62b1 d13b b551 51bc 6edf 0d3f 1e19 9f3d
00000080: 67d5 903c e7cb 2b3d 5529 d73d af0b 3d3b
00000090: 20ea 063b a88c 813e cd12 a63e 608e e2bd
000000a0: 58be 1e3e d2ab 083e 4f59 0b3c 8160 623e
000000b0: 7ba8 f23c d5ec b3be 33b6 823e 5552 eb3c
000000c0: 16a6 9dbb 9d8e 223d 9dba 093d 20dc a93d
000000d0: dbe1 44bc 92dd 893d ae0e fb3b b3d2 d33c
000000e0: 73b4 143e 8c12 8e3e 8fc2 9b3e 307f 0c3e
000000f0: 4034 2dbb 8fd9 91bb 0a1e 103f a21f 293d
00000100: 5aec ac3d fecb 76bd 8172 023d 3e83 9cbc
00000110: b67a 253b 65c6 e4be 153e ddbe 66f6 dd3d
00000120: eb1c a7be 19ab 6abe 9dc5 cbbb a06c 97be
00000130: e07e 8a3d ec24 153e b1ce edbe e697 5f3d
00000140: cadc c93d d920 e53d 3a86 853d 079c a53d
00000150: e120 293c db41 c9bd 6158 9e3d 7844 203e
00000160: c591 8abe d8c4 b2bd 07db eabe c0bb 8bbe
00000170: 3925 49bc 4fe1 033b fe02 d1be f676 d63d
00000180: 7104 433e cd74 013e a8c0 2dbd ad92 833c
00000190: 9f3b f6bb 3130 9fbe bca9 f5be 5454 bc3e
000001a0: d163 abbd cc43 c5bd f514 56bc 1129 84be
000001b0: 7f16 1f3e 1ea4 d83e 8706 b2be a114 1a3e
000001c0: 95c0 7e3e 42e9 2b3e beea 393e 92a5 0f3c
000001d0: f733 db3a 2d26 793d c59c 003e 6d6b 383e
000001e0: dd02 29be e955 c1be 9995 d8be 77b6 43be
000001f0: 039d a93b f875 e23a adf2 08bf 2709 0b3e
00000200: 4606 b63b 00b1 983b f9fb c2bb f417 ea38
00000210: 2dfa 9ebb b041 44bb ef23 903b 6bd1 9fba
00000220: 743c abbc 1959 aabc 6928 c9bb 3401 84bb
00000230: e7cc 333b bc91 273b 6b01 19bb 204b 613b
00000240: b306 f73b 86c7 e13b db91 57bb 5699 81ba
00000250: 4d8e 35bc c65c 95bc 1944 ddba f767 933b
00000260: de00 95bc e068 0b3a ae32 01bc 0559 a4bb
00000270: d489 b1bb 2f95 7cba 4dc4 233c 5ba4 85bc
00000280: 6159 fc3c f6d5 723d 09ca 1a3e 0964 bcbb
00000290: a19b c93a 7783 003f 55cc 153f 33ac 1ebe
000002a0: a60a a43e 9a11 803e ef4b 90bb d673 c33e
000002b0: 3e80 bd3c 9078 96be a6e6 093f 1878 393d
000002c0: fd5c 213c c1ee 623d 21c9 933c a8b0 333e
000002d0: 4b45 81bc d98b d13d c980 1b3d 85d6 5c3d
000002e0: 5b28 9a3e 6f56 e83e c8d8 1a3f 82e8 9f3e
000002f0: e00e e0b9 20d0 18bb e8a0 1c3f f003 e13d
00000300: 279f 243d 6280 953d bbb6 203e ef7e c53b
00000310: fc5c 973b 52af ed3e e487 0c3f ebf4 f8bd
00000320: 9820 6f3e 5c9e 653e 0700 e83c 1e53 b93e
00000330: 41e2 493c 385c b3be 789f f23e 407f 4f3d
00000340: ff29 003d 7649 633d 893b b33c 47d9 153e
00000350: ae0c a3bb b482 bf3d fd6d 463d eacc 3f3d
00000360: a810 8f3e b9b6 e33e 0dd1 073f 71e9 933e
00000370: 8cfb bfbb 5afc c63b cb31 263f 958e 9c3d
00000380: 6f5e 123e f5d4 be3d f3d4 56bd e2dd 87bb
00000390: c545 9f3b ad7b b7be 8c0e 01bf 16f0 bd3e
000003a0: 0486 0bbe 3b47 11be 7b58 d0bb 688f 9fbe
000003b0: 3c43 113e 24f2 ef3e ec22 c4be a05f 113e
000003c0: 5fb9 533e cd02 313e 26bf 393e b467 21bc
000003d0: 2345 eebb daad 133d 5d07 e63d 1b50 243e
000003e0: 66de 40be f056 c1be 5218 fdbe 75ea 70be
000003f0: 3531 193b 2ccb 2c3c b19e 02bf fb08 ed3d
0.020568727 0.038469445 0.13071226 0.010676606 -0.00037640578 0.24310453 0.30811733 -0.07447325
0.16048446 0.10145889 -0.007108089 0.19017196 0.03867759 -0.3613576 0.24216886 0.025241314
0.012226497 0.04089631 0.0180132 0.11506935 -0.01446228 0.09383745 0.02896206 0.023501242
0.15251067 0.2848628 0.2729332 0.14060572 0.0063993195 -0.012775828 0.5541905 0.077684626
0.017679883 0.041942503 0.1050593 0.0028846075 0.0020586327 0.25302625 0.3243622 -0.11062312
0.15502298 0.13346794 0.00850518 0.22107126 0.029621353 -0.35141626 0.25529632 0.028725782
-0.0048110588 0.039686788 0.033625234 0.08293939 -0.012016739 0.06731714 0.007661662 0.025857305
0.14521961 0.27748525 0.30421874 0.13720393 -0.0026428849 -0.004450984 0.56295836 0.041289933
0.08443518 -0.060253136 0.03184748 -0.01910555 0.0025250143 -0.44682613 -0.43211427 0.108380124
-0.3263925 -0.22916831 -0.0062186257 -0.29575062 0.06762481 0.14564866 -0.46446756 0.05458822
0.09856565 0.11187906 0.06519742 0.080864005 0.01032278 -0.09827014 0.07731701 0.15651119
-0.27064338 -0.08728951 -0.4587023 -0.2729168 -0.012276941 0.0020123308 -0.40822595 0.10471909
0.19044663 0.12642212 -0.04242006 0.016061151 -0.0075144316 -0.31091455 -0.4798106 0.36783087
-0.08368648 -0.09632072 -0.01306652 -0.2581258 0.15535925 0.4231271 -0.34770605 0.15046932
0.24878152 0.167882 0.18155953 0.008767502 0.0016723861 0.060827423 0.12559803 0.1800973
-0.16504999 -0.37760857 -0.42301634 -0.19112574 0.005176188 0.0017277589 -0.53495294 0.1357771
0.005554947 0.004659772 -0.0059504476 0.00011162451 -0.0048516006 -0.002994638 0.004398815 -0.0012193149
-0.02090285 -0.020794438 -0.0061388505 -0.0040284637 0.0027435364 0.0025569042 -0.0023346792 0.0034377053
0.0075386404 0.00689024 -0.0032893333 -0.0009887617 -0.01108129 -0.018232714 -0.0016881257 0.0044984776
-0.01818889 0.0005318057 -0.007885618 -0.005015495 -0.0054180417 -0.0009635267 0.009995532 -0.016313722
0.030804338 0.05928608 0.15116133 -0.00574923 0.0015381464 0.502006 0.5851491 -0.15495376
0.32039374 0.2501343 -0.0044035832 0.38174313 0.02313244 -0.29388857 0.53867567 0.045280546
0.00984883 0.055403475 0.018040242 0.17547858 -0.015780112 0.10231752 0.037964616 0.05391552
0.30108914 0.45378444 0.6048703 0.31232077 -0.00042735692 -0.0023317412 0.61183023 0.10987079
0.040190842 0.07299878 0.15694706 0.0060270946 0.004619239 0.4642282 0.5489485 -0.121560894
0.23352277 0.2242369 0.028320326 0.36196226 0.01232201 -0.35031295 0.4738729 0.050658464
0.03129005 0.05548998 0.021878975 0.14633666 -0.004975877 0.093511015 0.048444737 0.04682628
0.27942395 0.44475344 0.5305336 0.2888904 -0.005858844 0.006072563 0.6491973 0.07644383
0.14293836 0.09317962 -0.052449178 -0.0041463235 0.004860612 -0.35836545 -0.5041282 0.37097234
-0.13625342 -0.14187329 -0.006358204 -0.31164098 0.14185804 0.46864426 -0.38307893 0.14196634
0.20676182 0.17286225 0.18139324 -0.009851385 -0.0072714253 0.03605447 0.11231873 0.16046183
-0.18834838 -0.3776164 -0.49432617 -0.23526938 0.0023375277 0.010546487 -0.51023394 0.115739785

actor.2.bias f4 [32]
00000000: 172d 85bd 69bf 74bc b552 44be bd14 dd3e
00000010: aa64 dfbd 34d0 9bbe 404e 8ebe dc01 f03e
00000020: 63cc f03e 3898 ef3e f7b6 32be 8924 b3bd
00000030: b0bd 59bd 58b4 c53c 10ae 45bc ee61 9abd
00000040: b3f1 03bc c834 85be 523e ebbd ecdb f1bd
00000050: ba08 fcbc cd69 dbbc 73a9 59bd 2d07 63bc
00000060: f03b 72bd 6363 68be 77d7 4dbe e1ad 94bd
00000070: 0b22 6cbe ab2e f8bd 2189 18bc c569 38be
-0.06502741 -0.014938214 -0.19172175 0.43179885 -0.10907872 -0.30432284 -0.27794075 0.4687642
0.47030935 0.4679582 -0.17452608 -0.08747203 -0.053159416 0.024133846 -0.0120654255 -0.0753821
-0.008053231 -0.2601683 -0.11486496 -0.11809525 -0.03076588 -0.026783848 -0.053140115 -0.013856691
-0.059139192 -0.22694163 -0.20101725 -0.07259727 -0.23059861 -0.12118276 -0.009310038 -0.18009098

actor.4.weight f4 [1, 32]
00000000: c27b 37be dc8c 30be e430 a93e 6097 cf3e
00000010: 4931 f1bb e6d9 e8be a369 bfbe 58d8 d83e
00000020: 34a3 f53e 135a d83e 8887 6c3b a364 92be
00000030: 2b15 043c 459b 15be 80a6 28be 1737 43be
00000040: 909b 2fbe 5fa9 a7be f55f 46be e1ce 59be
00000050: b3a7 5bbe 2be9 1fbe 5777 8abe 3890 23be
00000060: cd74 96bb 6d79 79be fdb4 c8be 7491 3cbe
00000070: 94be d8be 9e75 08bb e16a 23be bfa9 bb3c
-0.17918304 -0.17241234 0.33045113 0.40545177 -0.0073606116 -0.45478743 -0.37385282 0.42352557
0.47976077 0.4225622 0.0036091525 -0.28592405 0.008061687 -0.14610012 -0.16469765 -0.19063984
-0.17149186 -0.32746407 -0.19372542 -0.21270324 -0.21450691 -0.1561629 -0.27044174 -0.15972984
-0.0045915605 -0.24362727 -0.39200583 -0.18414861 -0.423329 -0.0020822058 -0.1595874 0.02290809
