TD3/7_Position_TD3/EnvUAV/Net/Height_Actor.pth (torch, 6807 bytes, 5 tensors)

actor.0.weight f4 [32, 3]
000000 6e 8b 1f bb 95 1f 18 3a f7 68 61 3a 7d 94 14 bb
       -0.0024344581 0.0005803046 0.000859871 -0.0022671514
000010 8b f5 9f 3a e6 e1 b4 bb 22 94 d4 3a 64 e4 99 bb
       0.0012203915 -0.0055200933 0.0016218463 -0.0046964157
000020 c6 db 65 bc dc 8b dc bf 8c bd 2b 3f 11 63 43 3c
       -0.014029449 -1.7230182 0.670861 0.011925475
000030 7a 62 2a bd f4 54 ce 3e ba 5f fd bc ce 5d de bb
       -0.04159782 0.4029919 -0.030929435 -0.0067860847
000040 8e dc bb 3b 8f 38 ac bc d6 ca 99 ba 9d d9 5b bb
       0.0057330793 -0.021023063 -0.0011733423 -0.0033546456
000050 27 44 c0 3b 87 96 db 3e 45 3d cc 3c 90 a5 28 3e
       0.0058674994 0.4288828 0.02493156 0.16469407
000060 b2 23 d2 3d 1e 62 ee 3e 55 a7 09 bb 6a ad d5 bb
       0.102607146 0.46559232 -0.0021004279 -0.0065209167
000070 f2 a0 0f bc e5 62 36 3c 7e 94 e3 3b 5f 3c 7c bb
       -0.0087664 0.011131977 0.006945192 -0.0038488132
000080 22 4b 7a 3b 61 d7 cc be df af 13 3f a8 98 4a 3d
       0.0038191755 -0.4000807 0.57690233 0.04946199
000090 10 08 c9 3e ca 09 eb 3e 9b 20 13 bc e0 c8 d7 3e
       0.39263964 0.45905906 -0.008979942 0.42145443
0000a0 08 8d 44 3f a6 42 7c 3b c1 cb 9a bb 53 12 e7 3b
       0.76777697 0.0038491874 -0.0047239964 0.007051745
0000b0 33 50 9e b9 2b 70 3c 3f c9 43 23 bf 1b 23 d8 3e
       -0.00030195861 0.73608655 -0.63775307 0.42214283
0000c0 87 ce 8c 3e 85 17 a7 3e 58 24 7e 3d 40 68 7f 3d
       0.27501318 0.3263513 0.06204638 0.06235528
0000d0 56 f6 9f 3e 12 8f 9c bb 4e ed c4 3e 7c bf d3 3e
       0.31242627 -0.0047777975 0.384623 0.41357028
0000e0 50 cf 98 3d dc 8e f6 3d 63 46 f4 3e 00 28 30 3c
       0.07461417 0.12038967 0.4770995 0.010751724
0000f0 ee 74 39 bc 92 4d 80 bb 87 35 92 bc 74 78 bf be
       -0.011319382 -0.003915497 -0.01784779 -0.37396586
000100 e4 30 81 3e a0 76 4f 3e 26 76 2d 3b de 7a 78 3a
       0.25232613 0.20260096 0.0026468127 0.0009478758
000110 b0 0c f2 bb d2 3a 98 3e 2c cc a6 3e e0 82 4e 3e
       -0.0073867664 0.29732376 0.32577646 0.20167112
000120 b2 0f cd bb 67 7c 63 3c f7 9b a7 3b d6 0f aa ba
       -0.0062579745 0.01388464 0.005115028 -0.001297469
000130 a3 9e 23 3c 7d 8f 5b 3c 21 5b d1 3f a6 74 ea be
       0.009986552 0.0134009095 1.6355935 -0.4579212
000140 a9 0c 8d bc e4 05 11 3f 2d a9 c3 3b 19 d0 13 3c
       -0.01721795 0.56649613 0.005971095 0.009021782
000150 54 b4 00 3f 4b 1d d9 3e 51 d8 b9 3c 6f 39 ed 3e
       0.5027516 0.4240516 0.022686156 0.4633288
000160 b2 de 84 3d 3c 24 ff 3d 28 ed 1e bf 16 5b c7 3e
       0.06487788 0.12458083 -0.6208062 0.3893668
000170 b7 2f fd 3d 3c 28 b0 3e 5e 5c dc 3e 5f 12 ca 3c
       0.123626165 0.34405696 0.4303922 0.024666963

actor.0.bias f4 [32]
000000 66 91 e9 bc 3e 7d 0f be 10 f4 d6 be d4 ba 29 3f
       -0.028511714 -0.1401262 -0.4198308 0.663007
000010 bb ff 8e 3e ab aa e1 be 68 55 c3 be 10 e3 0c 3e
       0.27929482 -0.44075522 -0.38151097 0.13758492
000020 b7 60 55 3e d4 4c b4 be d5 13 37 be ce d2 b2 be
       0.20837675 -0.35214865 -0.17878659 -0.34926456
000030 c2 4a 65 3e 51 19 b5 3e e6 d2 67 be ec ad 1e 3f
       0.22391799 0.35370877 -0.22639045 0.61984134
000040 2c 67 14 3f a4 55 87 3e ea 1b 31 3f d8 16 95 3e
       0.5796993 0.26432526 0.6918322 0.2911899
000050 78 2e a4 be 97 03 94 3e 89 e8 f0 be fd b6 2a 3f
       -0.32066703 0.2890899 -0.4705241 0.6668547
000060 08 a4 41 be 04 9b ef be 9c 51 6f 3f 43 f5 03 3e
       -0.18910229 -0.46797955 0.934839 0.12886529
000070 b7 99 2b 3f c8 2e 05 3e 7f 3c de 3e e4 01 1b bf
       0.67031425 0.13006127 0.4340553 -0.6054976

actor.2.weight f4 [32, 32]
000000 2d 1e 1d 3c 4e 01 36 bb 7b 4e 66 ba 7c 19 0e bc
       0.009589714 -0.0027771774 -0.0008785498 -0.008673068
000010 5c 3b 19 bc 69 52 3b bb c2 75 7d 3c 85 06 fb bb
       -0.009352531 -0.0028583056 0.01546997 -0.0076606893
000020 7e 40 61 3c 40 6c 4e bc 73 76 ac bc 09 6f 9b ba
       0.013748286 -0.012599051 -0.021052575 -0.0011858653
000030 25 57 17 bc da 56 20 ba f5 01 7b 3b 4d 4d 9c bb
       -0.0092370855 -0.00061164575 0.0038300727 -0.004769957
000040 c6 bc de 3a 65 c6 70 3c cd df 46 bb 98 f8 25 bc
       0.0016993515 0.014695738 -0.0030345798 -0.01013007
000050 f8 d9 51 bb 86 df 2d bc f7 32 3e b9 40 51 67 bc
       -0.0032020789 -0.010612374 -0.00018138798 -0.014118493
000060 57 76 19 3c e6 47 42 bc fd cb 99 3a 7b 51 a4 b9
       0.009366593 -0.011857962 0.0011733767 -0.00031341225
000070 97 e2 ac bb 8b dd 1e ba 7e 46 26 bb 57 24 25 bb
       -0.005276035 -0.0006060234 -0.0025371606 -0.0025198662
000080 1f 33 93 3c 20 af c4 ba 61 aa 3a 3c b9 f1 3a bf
       0.017968712 -0.0015005805 0.011393161 -0.7302509
000090 f6 99 0d 3f 3b 6f 05 bc 6d ee 0c bc a4 f8 36 3f
       0.5531305 -0.008144195 -0.008601767 0.71473145
0000a0 48 d7 d0 3e 74 96 ac 3b ea 85 5c 3a e7 06 2b 3f
       0.40789247 0.005266959 0.0008412289 0.6680741
0000b0 a9 70 02 3f 4b 16 3f 3e 75 f3 53 bc eb 94 91 be
       0.50953156 0.18660848 -0.012936463 -0.28433928
0000c0 f3 c3 02 3e e8 ab 47 3f 86 b2 cb 3d ce 94 e4 3e
       0.12770061 0.77996683 0.0994616 0.4464478
0000d0 6f 1b 48 3c 0a d5 83 3e be 84 b6 bc 0b cc 4c 3c
       0.012213572 0.25748473 -0.022280093 0.0124998195
0000e0 dd 65 c8 3b 4e e5 e1 bb e9 71 c3 be fb 49 8f 3f
       0.0061156587 -0.0068937903 -0.38172844 1.1194452
0000f0 b7 57 61 3e f5 b8 0a 3f 38 bf d6 3e 4a 46 b1 3f
       0.22006117 0.5418847 0.41942763 1.3849576
000100 d8 79 38 bc 89 d3 f8 3b bb e0 bf 3b 1d f1 40 bf
       -0.011259519 0.0075935763 0.0058556474 -0.7536791
000110 59 b8 d5 3e f9 02 fc 3b 02 97 43 b8 cb 87 cb 3d
       0.4174221 0.007690784 -4.663226e-05 0.0993801
000120 43 09 ce 3e 40 d8 70 3a 9d 90 4b bc df 9b 08 3f
       0.4024144 0.0009187497 -0.012424615 0.5336284
000130 8e a8 eb 3e 3b 3e 38 3e 0b 06 14 3c bf ad 6f be
       0.46027035 0.17992489 0.009034644 -0.23406123
000140 65 df 60 3e da 46 0f 3f 6e 71 90 3e b4 47 9d 3e
       0.21960218 0.55967486 0.2821154 0.30718768
000150 8d 58 97 3b 27 25 1e 3e c1 ca c9 bb b7 f6 34 3e
       0.0046187104 0.1544386 -0.0061582034 0.17672239
000160 81 9b 54 bc d1 a4 0c 3b e6 cf a8 bd 07 12 42 3f
       -0.012976528 0.0021460543 -0.082427785 0.7580876
000170 dc a1 47 3e 50 86 0f 3e da 0b 41 3e 7d 5b 7f 3f
       0.19495338 0.1401608 0.18852177 0.99748975
000180 bd 41 1e 3b 64 64 26 3c c0 8e 57 bc 58 0b b0 bf
       0.002414807 0.010155771 -0.013156593 -1.3753462
000190 35 c2 03 bd d9 12 da 3b a0 af c2 3a da d0 16 bc
       -0.032167632 0.006655079 0.0014853366 -0.0092050675
0001a0 bd ba 8b 3e 13 52 de bb 4d 1d 55 bc 6f 84 1c bf
       0.27290908 -0.0067846864 -0.013007474 -0.6113958
0001b0 75 ec 91 3f 3a b7 71 3e c9 14 a1 bc 5f f6 52 be
       1.1400286 0.23605052 -0.019663231 -0.20601796
0001c0 a9 2c b7 3e f3 ab 76 3e 0d 2f da 3e 89 c1 f3 3d
       0.3577626 0.24089031 0.42614022 0.11902148
0001d0 84 26 90 ba 76 0a a7 bd 23 16 9c 3b 57 13 8a 3e
       -0.0010997807 -0.08156292 0.004763381 0.2696788
0001e0 44 df 80 bc 57 57 8d b8 68 30 23 bc 92 dc ea 3e
       -0.015731461 -6.739672e-05 -0.009960271 0.45871407
0001f0 25 5e 98 3e f9 95 89 3e fe 35 8b be ad 8c 82 3f
       0.29759327 0.26872233 -0.2718963 1.0199181
000200 d8 d7 a8 3a 2a 69 6a bc 70 ce 14 3c ea 2c f1 bb
       0.0012881709 -0.0143073 0.009082422 -0.0073600905
000210 e8 15 96 b8 04 e5 bd ba 3b 68 b4 3b e5 46 0d 3b
       -7.156638e-05 -0.0014487808 0.0055055893 0.002155715
000220 c2 1e 67 38 f3 7c d0 3a ae 41 ae bb b4 69 32 3b
       5.5103337e-05 0.0015906378 -0.005317888 0.0027223649
000230 b3 23 1e 3b b9 32 1f 3c eb 63 a0 bc 9e 66 c0 bb
       0.0024130165 0.009716683 -0.019578895 -0.005871608
000240 24 ea 9e ba db 15 4a bb 2a b5 08 bc d4 a1 6b 3c
       -0.0012124223 -0.003083578 -0.008343974 0.014381845
000250 cf 6f f6 3b 37 c7 fc 3b b6 70 1b bb ad 18 90 3a
       0.007520653 0.007714178 -0.0023718304 0.0010993682
000260 8d 02 3d 3b 7d 8b ec bb 8e 6c ae bb 57 6a 2e ba
       0.0028840632 -0.0072187767 -0.0053229993 -0.0006653419
000270 44 cc 3e 3a 2a 08 71 bb 39 f2 62 bc be 43 71 bb
       0.0007278363 -0.0036778548 -0.013851696 -0.003681406
000280 c9 95 29 bc c7 27 a0 bc 24 2c 2b 38 de 22 0f bc
       -0.010350653 -0.019550217 4.0810686e-05 -0.00873634
000290 ec b6 f7 3b e1 9f 38 3c 95 6a 76 3c ba df 90 bc
       0.007559648 0.011268587 0.01504006 -0.017684806
0002a0 a9 88 3b 3a 57 0d f0 bb 6f 2a 93 3c 7f e8 66 3c
       0.0007153848 -0.007325809 0.01796457 0.014093517
0002b0 6f b0 84 bb 8e dd c3 3b ee 5f 3b 3c 1b dc 39 bb
       -0.004049353 0.005977339 0.011436446 -0.0028359953
0002c0 9a 4b 1b 3b d4 c4 34 bc 86 1b ac bb 6c 22 1e bc
       0.0023696185 -0.011033256 -0.0052523045 -0.0096517615
0002d0 77 93 94 bb ff 0d 3b 3c 5d ea a2 bb 3d 23 fe ba
       -0.0045341807 0.011416911 -0.004971786 -0.0019389164
0002e0 74 b8 12 bc c2 b5 15 3c 9a a0 19 3c 15 15 44 bc
       -0.00895511 0.009137573 0.009376669 -0.011967917
0002f0 90 05 1b 3b c9 0c 27 3c 1a 7e 37 3c 6b 89 78 bb
       0.0023654439 0.010195919 0.011199499 -0.0037923704
000300 29 66 35 3c c6 ec 46 3c 35 66 f9 bb e0 bb 1a bf
       0.01107172 0.012141412 -0.007611061 -0.60442924
000310 f5 c9 09 3f 28 e5 14 bb 6a 34 b8 ba 91 28 ba 3e
       0.53823787 -0.0022719596 -0.0014053707 0.36359075
000320 83 1a 10 3f 09 82 f8 b9 fd 28 02 bc 90 a4 34 3d
       0.56290454 -0.0004739913 -0.007944343 0.04410225
000330 25 b6 06 3f 16 ae 8d 3e a6 50 d0 bb a5 46 33 be
       0.5262168 0.2767188 -0.0063572703 -0.17507418
000340 48 fe 66 3e 7b 35 35 3f cd f6 4a 3e 3a e8 eb 3e
       0.22557938 0.7078473 0.1982071 0.46075612
000350 20 74 31 3c f8 34 81 3e ef 51 41 3c bf 39 0a 3e
       0.010830909 0.25235724 0.01179932 0.13498591
000360 99 d1 45 bc ce f8 50 bc 36 b9 39 bf d0 df 13 3d
       -0.012073898 -0.012754632 -0.72548234 0.036102116
000370 c0 a0 49 3e d6 88 a7 3e 7c 13 08 3e 10 68 4f 3f
       0.19690228 0.32721585 0.13288683 0.8101816
000380 61 78 d7 3b 89 83 9f 3b 56 ad 87 bc 40 2b 66 bc
       0.0065756296 0.004867975 -0.016562145 -0.014048398
000390 dc c0 d8 3b 6f 45 e5 3b 95 62 d1 ba dc bd 91 3c
       0.0066147875 0.0069968025 -0.0015974814 0.017790727
0003a0 94 36 98 bb c2 3e 21 bc fb 46 c3 bb ec 9f f3 bb
       -0.004645178 -0.009841623 -0.0059593893 -0.0074348357
0003b0 07 94 bb 3b e7 a7 11 3b 7e 14 96 bb 40 71 b9 3b
       0.0057244333 0.0022225322 -0.0045800796 0.0056592524
0003c0 53 aa 56 bb 8f 17 65 3b bd 72 58 3a f7 c6 61 ba
       -0.003275533 0.003495667 0.00082568434 -0.0008612717
0003d0 80 14 f4 ba dd 4b 9a 3b b9 a8 04 3b ad c9 3c 3b
       -0.0018621832 0.0047087506 0.0020242168 0.0028806732
0003e0 26 c5 b5 bb 61 cb 63 3c 21 45 44 bc 9b 52 a6 3b
       -0.0055471836 0.01390347 -0.011979372 0.0050757653
0003f0 db a8 79 bc a6 db a3 3b 2e 4a ba bc a1 d5 59 3c
       -0.015238012 0.0050005494 -0.02274045 0.013295562

actor.2.bias f4 [32]
000000 7c 7d 15 be be b9 80 be d8 d8 38 bc 3e 75 27 3e
       -0.1459865 -0.2514171 -0.011282168 0.16353318
000010 ae 3d 20 be 16 64 e2 bd 4a da 70 bd bd c6 02 be
       -0.15648529 -0.11054246 -0.058801927 -0.12771125
000020 b9 9b 78 be fa ae c3 3b e3 16 5c be 0c 50 d2 be
       -0.24278153 0.0059717866 -0.21493106 -0.41076696
000030 25 ae 86 be 43 6d 2f 3e 1c 1e d9 be bd e3 8a bd
       -0.26304737 0.17131524 -0.42405784 -0.06781719
000040 0a d2 21 be 7a 82 b9 3a 3f 21 5c 3e e3 61 9c bd
       -0.1580278 0.0014153265 0.21497057 -0.07635858
000050 a7 b1 13 be e2 3c e6 bd e3 28 42 3e 3f 47 d7 bd
       -0.14423238 -0.11242081 0.1896091 -0.10511636
000060 9d b9 2b 3e a8 5c ab bb 80 51 e2 bd 83 bd 50 3f
       0.16770025 -0.0052295513 -0.11050701 0.8153917
000070 d3 03 d2 bd af f2 7d 3e 81 6f 1c bf 44 33 28 3f
       -0.10254636 0.24799608 -0.6110764 0.65703225

actor.4.weight f4 [1, 32]
000000 21 17 a5 bb 6a 4f 49 bf 76 41 f2 be ee 7f f4 bf
       -0.0050381576 -0.786368 -0.47315568 -1.9101541
000010 ee 8c 32 3c 51 69 85 3c 15 fc 79 bf f9 f4 40 3c
       0.010897858 0.01628557 -0.9765027 0.011777156
000020 7f 9c 4e bf 1b 63 97 bf 97 ec 5d bf 4b cd 85 3f
       -0.80707544 -1.182712 -0.8668913 1.0453275
000030 0f e4 60 bf ae c2 a8 bf ef f8 4c bf 57 de 29 3c
       -0.8784799 -1.3184412 -0.8006734 0.010367951
000040 5b 90 09 bc 5a 42 df be 71 29 24 c0 4e a2 ad 3c
       -0.008396233 -0.4360531 -2.5650294 0.021195557
000050 34 e8 86 3c 58 53 2f bc b3 c5 0f c0 45 db dd bf
       0.016468145 -0.010701023 -2.2464416 -1.7332541
000060 8d 34 07 bf 79 1a 87 3e 42 28 ae bb dc 2e 6e 3f
       -0.5281456 0.26387385 -0.0053148577 0.9304025
000070 8b c8 71 bf a1 62 17 c0 26 21 cc bf b2 7f 8c 3f
       -0.9444663 -2.3653948 -1.5947616 1.097647
