TD3/7_Position_TD3/EnvUAV/Net/Pitch_Actor.pth (torch, 6807 bytes, 5 tensors)

actor.0.weight f4 [32, 3]
-0.16979524 0.56606334 -0.011316128 0.014617653 -0.0016265858 0.0010042522 -0.010979821 -0.0014767577
0.0036841992 -3.0241687 0.00046061963 0.0032135106 0.005390342 0.0031842007 0.0017749316 -3.4605682
0.03719015 0.0050408468 -0.009805681 -0.0014495089 -0.0035662097 1.5551751 0.6031073 0.006410947
-0.53339076 0.39741454 0.0711254 -2.3930416 -0.061476175 0.009511315 0.25949138 0.4519217
0.025492374 -0.2718172 0.09037663 0.06930141 -0.0009793297 -0.00024030628 -0.0015828955 -2.1811779
-0.18859045 -0.0064379163 -2.5690084 0.20139106 0.014082031 -0.30344853 0.3959904 0.0053041372
1.9771149 0.35693076 0.008713986 0.5463281 0.2585013 0.04361043 3.2381542 -0.32650763
-0.009480231 0.0072412556 -0.004884993 -0.0003522208 -0.0041081854 0.0010642789 0.0023844375 -0.7785561
0.22194046 0.016414907 -0.0533174 0.32436758 -0.03369037 1.2371266 0.3130411 0.004812259
1.4852327 0.37042218 0.09987637 -1.3251449 -0.26702392 -0.084087774 2.2688804 0.18579072
-0.017288843 0.58944386 0.22791646 -0.071864225 2.1626337 0.2705243 0.03684734 1.4493141
-0.22552879 0.0026495487 0.005602976 0.0037230935 -0.0011388848 0.9398777 -0.02380267 0.003022742
00000000: cede 2dbe 87e9 103f 4867 39bc e17e 6f3c
00000010: 2a33 d5ba 1da1 833a b5e4 33bc c48f c1ba
00000020: 9b72 713b fb8b 41c0 527f f139 c399 523b
00000030: 77a1 b03b 06ae 503b d2a4 e83a f379 5dc0
00000040: b354 183d b02d a53b 02a8 20bc 73fd bdba
00000050: 12b7 69bb fa0f c73f 3d65 1a3f ec12 d23b
00000060: 4c8c 08bf eb79 cb3e 32aa 913d 9827 19c0
00000070: 71ce 7bbd 59d5 1b3c 0edc 843e 4862 e73e
00000080: 62d5 d03c a02b 8bbe 6217 b93d e6ed 8d3d
00000090: da5c 80ba bafa 7bb9 2979 cfba 6b98 0bc0
000000a0: db1d 41be 28f5 d2bb a26a 24c0 7539 4e3e
000000b0: 52b8 663c 9b5d 9bbe 41bf ca3e 54ce ad3b
000000c0: 1a12 fd3f a1bf b63e 1bc5 0e3c 29dc 0b3f
000000d0: 485a 843e daa0 323d eb3d 4f40 022c a7be
000000e0: f952 1bbc 0e48 ed3b 4b12 a0bb 47aa b8b9
000000f0: f59d 86bb 467f 8b3a 3944 1c3b 744f 47bf
00000100: 5c44 633e 8e78 863c 5963 5abd 8213 a63e
00000110: eafe 09bd 2a5a 9e3f ec46 a03e 28b0 9d3b
00000120: 1b1c be3f faa7 bd3e fb8b cc3d 599e a9bf
00000130: 5cb7 88be 3636 acbd 5635 1140 ec3f 3e3e
00000140: 55a1 8dbc cbe5 163f ef62 693e 8d2d 93bd
00000150: 9768 0a40 2982 8a3e 3ded 163d 2083 b93f
00000160: 05f1 66be 0da4 2d3b 2b99 b73b 25ff 733b
00000170: a246 95ba d39b 703f d1fd c2bc 3219 463b

actor.0.bias f4 [32]
-0.27909112 -0.43571714 -0.44083208 0.12008816 -0.26375458 0.13734786 -0.5660563 0.24325447
0.15675099 0.070614636 -0.19206037 -0.56184435 -0.18843822 0.32485023 0.057209257 -0.8153208
0.41317382 0.46246955 0.3244789 -0.37351227 -0.4940375 0.7916676 -0.18537372 0.16170776
0.3137813 -0.09224087 0.22085285 -0.06587185 0.25527483 -0.12936242 -0.28350034 -0.74721235
00000000: 08e5 8ebe 5116 dfbe beb4 e1be c8f0 f53d
00000010: d70a 87be eba4 0c3e 11e9 10bf b317 793e
00000020: 5583 203e 689e 903d 79ab 44be 08d5 0fbf
00000030: f3f5 40be c552 a63e 4154 6a3d ddb8 50bf
00000040: 858b d33e cfc8 ec3e 1922 a63e 003d bfbe
00000050: 7cf2 fcbe baaa 4a3f 9cd2 3dbe b896 253e
00000060: f1a7 a03e c8e8 bcbd 4027 623e d2e7 86bd
00000070: 62b3 823e 9577 04be f526 91be 4f49 3fbf

actor.2.weight f4 [32, 32]
-0.51102394 -0.008528141 -0.006630905 0.61356 -0.004870457 0.37284577 -0.0023921463 -0.12711923
-0.052962016 0.21980391 -0.2441399 0.11760586 0.016682653 0.39343375 0.0653491 -0.3306481
-0.11053148 0.047360312 0.088099785 -0.0012214328 0.017304648 0.05352768 -0.10310722 0.033494364
-0.015336864 0.08601733 0.038957357 -0.12732956 0.071408786 0.47838312 0.01380377 0.23210853
0.08206491 -0.008414583 -0.0013357552 -0.47434324 0.008145968 -0.46427295 0.0077231424 0.23578085
0.2168631 0.021218682 0.12993069 -0.07034201 -0.0061656567 -0.24965452 -0.43443054 0.3179602
0.3495344 0.09168327 0.4867597 -0.009184733 -0.0073678438 0.16022076 0.07110965 -0.07468532
0.21063356 -0.12157274 0.03946732 0.04159911 0.090976655 -0.2417058 0.007208555 -0.029349262
-0.15391955 -0.0048683947 0.017550064 0.5950547 0.0024464135 0.39440602 0.011315151 -0.19173619
-0.142886 0.12317602 -0.28399712 0.24709053 -0.010940425 0.40075615 0.0669634 -0.10562668
-0.16841762 -0.067025594 -0.0669624 0.0030262892 0.002154493 -0.017775677 -0.11523746 -0.069923334
-0.051615525 0.09847644 -0.07981818 -0.12777662 0.011379411 0.48962379 0.003829645 0.25297657
0.07813942 -0.020373913 -0.013835426 0.112998515 0.0019052307 0.24407169 0.0037701551 0.08956235
0.13024113 -0.056850586 0.10371035 0.169965 -0.009755561 0.038690683 0.1253168 -0.059222937
0.03520674 -0.032864057 0.2913693 -0.015194596 3.820628e-05 0.11655738 -0.02503366 0.06869616
0.06967759 0.023719704 0.12414442 -0.08632326 0.1595445 0.40237644 0.00060428743 0.26419342
0.16882898 -0.008351041 0.011285591 -0.5440593 0.003498593 -0.52180433 -0.0139431115 0.18187533
0.21812344 0.018807199 0.12658884 -0.12666775 -0.013415917 -0.30890957 -0.3440971 0.34371302
0.28749952 0.11737024 0.52433246 0.0021978025 0.008408022 0.19348007 0.014725048 0.013906479
0.22019164 -0.119890146 -0.045963835 0.087641306 0.118722945 -0.21546397 -0.0061084577 0.021798734
-0.2815081 -0.0027946685 -0.0049817148 0.59406304 -0.009764974 0.31651875 -0.006261221 -0.2373399
-0.029951757 0.096614316 -0.06423446 0.2141194 -0.015183882 0.32799447 0.060564253 -0.18466222
-0.16752556 -0.07409794 -0.12619214 -0.016547551 -0.0044462946 0.059809905 0.11109072 0.021123659
0.0024369203 -0.17834225 -0.09357878 -0.17857262 0.09519695 0.39898655 0.019965364 0.25377116
0.025717368 0.0045615253 -0.006047652 -0.029825753 0.004784748 -0.032791957 0.0107309185 -0.043104444
-0.033502765 -0.0071055125 -0.038066447 -0.023039334 -0.004175215 -0.023464393 0.017654886 -0.034223005
-0.036449946 -0.033624947 -0.028443774 0.00085375895 -0.0013515918 -0.012499063 -0.05774312 0.0040711765
-0.008618746 0.005878704 -0.042979978 -0.029708609 -0.015155359 -0.0096200565 -0.005547295 -0.022538751
0.17599326 -0.01637307 -0.01081551 -0.5301469 0.013416542 -0.50495654 0.00021375959 0.16663964
0.2243889 0.00561818 0.12066354 -0.12605774 0.0027744486 -0.31058654 -0.33046407 0.36902976
0.291054 0.15861878 0.5393922 0.0034025488 0.00898441 0.19283812 0.003108679 0.023480792
0.20280038 -0.11119296 -0.035156142 0.08681097 0.124922216 -0.17801169 0.014939841 0.029717874
00000000: 77d2 02bf 9eb9 0bbc 1048 d9bb 4512 1d3f
00000010: 5b98 9fbb a4e5 be3e 8ec5 1cbb 8b2b 02be
00000020: b3ee 58bd 4714 613e cfff 79be 57db f03d
00000030: 0faa 883c 2670 c93e c0d5 853d b54a a9be
00000040: 545e e2bd e3fc 413d a96d b43d 7c18 a0ba
00000050: 7ac2 8d3c d73f 5b3d e129 d3bd 6331 093d
00000060: 7847 7bbc db29 b03d c091 1f3d ae62 02be
00000070: c53e 923d a2ee f43e 3529 623c dcad 6d3e
00000080: a611 a83d 52dd 09bc 8214 afba 1edd f2be
00000090: ab76 053c 2fb5 edbe 6a12 fd3b 8970 713e
000000a0: 5c11 5e3e cdd2 ad3c 8d0c 053e 790f 90bd
000000b0: 4709 cabb 6fa5 7fbe ae6d debe aecb a23e
000000c0: 2cf6 b23e 70c4 bb3d 9138 f93e 907b 16bc
000000d0: f46d f1bb e910 243e f0a1 913d 9ef4 98bd
000000e0: 53b0 573e 21fb f8bd 7ca8 213d d463 2a3d
000000f0: f851 ba3d ba81 77be be35 ec3b dd6d f0bc
00000100: 169d 1dbe 0e87 9fbb 27c5 8f3c 8155 183f
00000110: 0254 203b 96ef c93e 2f63 393c 7e56 44be
00000120: b550 12be b643 fc3d 1268 91be 4d05 7d3e
00000130: 783f 33bc e92f cd3e 1b24 893d cd52 d8bd
00000140: ab75 2cbe b744 89bd 9523 89bd b554 463b
00000150: 6532 0d3b 4c9e 91bc 9e01 ecbd f733 8fbd
00000160: cd6a 53bd 04ae c93d b777 a3bd e0d7 02be
00000170: b670 3a3c f8af fa3e c8fa 7a3b 2586 813e
00000180: 8f07 a03d 31e7 a6bc fcad 62bc c46b e73d
00000190: efb8 f93a eeed 793e b514 773b 776c b73d
000001a0: ee5d 053e 29dc 68bd 1866 d43d 4e0b 2e3e
000001b0: cad5 1fbc 1f7a 1e3d 0c53 003e c093 72bd
000001c0: f134 103d 769c 06bd 5b2e 953e c1f2 78bc
000001d0: ae3f 2038 a3b5 ee3d 6413 cdbc 93b0 8c3d
000001e0: 20b3 8e3d d34f c23c 6e3f fe3d 40ca b0bd
000001f0: a25f 233e 4904 ce3e 0b69 1e3a 5c44 873e
00000200: 81e1 2c3e ced2 08bc 33e7 383c 7847 0bbf
00000210: a748 653b f894 05bf a671 64bc 873d 3a3e
00000220: c05b 5f3e 8e11 9a3c 81a0 013e 31b5 01be
00000230: 6fce 5bbc 6529 9ebe 7f2d b0be 27fb af3e
00000240: 2333 933e cf5f f03d a73a 063f 0209 103b
00000250: cdc1 093c a41f 463e 5441 713c 00d8 633c
00000260: eb79 613e f788 f5bd 9344 3cbd 497d b33d
00000270: 0425 f33d 96a2 5cbe 7529 c8bb 4293 b23c
00000280: d421 90be c226 37bb a73d a3bb 8414 183f
00000290: 45fd 1fbc bf0e a23e ee2a cdbb 3b09 73be
000002a0: 635d f5bc badd c53d 5b8d 83bd 1e42 5b3e
000002b0: d1c5 78bc e4ee a73e 3912 783d 1818 3dbe
000002c0: d28b 2bbe a9c0 97bd 8338 01be bb8e 87bc
000002d0: 39b2 91bb 3bfb 743d 8883 e33d 860b ad3c
000002e0: bdb4 1f3b 5a9f 36be 3ba6 bfbd bedb 36be
000002f0: 9ef6 c23d f747 cc3e 678e a33c 4bee 813e
00000300: 3bad d23c d978 953b 622b c6bb 2355 f4bc
00000310: 60c9 9c3b dc50 06bd bcd0 2f3c 498e 30bd
00000320: 323a 09bd 5cd5 e8bb 90eb 1bbd fcbc bcbc
00000330: 3ed0 88bb 6638 c0bc fba0 903c 6c2d 0cbd
00000340: 8a4c 15bd 50ba 09bd eb02 e9bc cbce 5f3a
00000350: e527 b1ba dfc8 4cbc 0d84 6cbd 8167 853b
00000360: a435 0dbc 25a2 c03b c60b 30bd 785f f3bc
00000370: 2f4e 78bc 719d 1dbc 15c6 b5bb 30a3 b8bc
00000380: 9437 343e d120 86bc 8933 31bc b5b7 07bf
00000390: 0ed1 5b3c d544 01bf a724 6039 95a3 2a3e
000003a0: 34c6 653e b618 b83b 721e f73d 4815 01be
000003b0: 86d3 353b 3305 9fbe 9632 a9be 78f1 bc3e
000003c0: 0805 953e f66c 223e 9b15 0a3f 4cfd 5e3b
000003d0: 5933 133c 5b77 453e fbba 4b3b ca5a c03c
000003e0: e7aa 4f3e 22b9 e3bd e3ff 0fbd f3c9 b13d
000003f0: 38d7 ff3d b248 36be 3cc6 743c e672 f33c

actor.2.bias f4 [32]
0.12130929 0.23191299 0.050715074 -0.019910084 0.24751501 -0.019263871 -0.14635418 0.2429603
-0.20510928 -0.14154778 0.09306457 0.027676063 -0.371485 0.09723899 0.20346801 -0.17410208
0.021392915 -0.28627276 0.20566808 0.5284875 0.22308892 0.028353486 0.00405564 0.013670102
-0.12069295 -0.37461975 0.11742513 0.14186847 0.5036724 -0.09177418 -0.10491227 0.012392869
00000000: 0171 f83d 997a 6d3e 9cba 4f3d 791a a3bc
00000010: 9374 7d3e 44cf 9dbc dfdd 15be 96ca 783e
00000020: 2b08 52be e7f1 10be a398 be3d e9b8 e23c
00000030: 4833 bebe 3c25 c73d eb59 503e d147 32be
00000040: 3240 af3c 5892 92be a79a 523e f54a 073f
00000050: 6c71 643e 9245 e83c 2de5 843b 90f8 5f3c
00000060: de2d f7bd 29ce bfbe 967c f03d f845 113e
00000070: adf0 003f 1af4 bbbd 3fdc d6bd 760b 4b3c

actor.4.weight f4 [1, 32]
0.72082096 -0.33580673 0.39158592 0.5441029 -0.34038618 0.22739314 -0.014578035 -0.31834456
0.38901994 -0.0028052086 -0.62434524 0.92887574 0.35400164 -0.5839322 0.7331297 -0.0013113456
0.8358895 0.25099507 1.0858094 2.2716892 -0.46271077 1.2608726 0.62101465 -0.472064
0.001886153 -0.27718863 1.3216623 1.5865074 2.173 0.25316846 0.00040227166 0.6502797
00000000: b987 383f dcee abbe f37d c83e 544a 0b3f
00000010: 1947 aebe bfd9 683e b6d8 6ebc 0ffe a2be
00000020: 9f2d c73e 97d7 37bb 17d5 1fbf cdca 6d3f
00000030: b43f b53e 957c 15bf 63ae 3b3f 75e1 abba
00000040: dbfc 553f 6d82 803e cdfb 8a3f 5b63 1140
00000050: 6de8 ecbe 4664 a13f d1fa 1e3f 5fb2 f1be
00000060: cb38 f73a abeb 8dbe 3b2c a93f ad12 cb3f
00000070: 6f12 0b40 4c9f 813e fde7 d239 bb78 263f
