TD3/7_Position_TD3/EnvUAV/Net/X_Actor.pth (torch, 7191 bytes, 5 tensors)

actor.0.weight f4 [32, 6]
00000000: aa76 f8be 2ca4 a23f 4125 433e 9c1a 263e
00000010: b1c5 d23d a22e f43a 19a4 03c0 3e47 f2bd
00000020: 4622 a93e 6f58 403f 4e04 223e 898e 79bc
00000030: 4a36 1e40 3619 87be 5f52 e2be 0955 dbbe
00000040: 1d1d 9bbe 3407 173b 8f47 1cbf 06cf 093f
00000050: b692 50bb 3688 01be 72f3 873e 2e32 0dbc
00000060: a692 063c f7c1 c9bb a3b0 c4b9 1c94 5dbc
00000070: c534 b1bb 48b3 52b9 9b06 2d3e 3902 df3d
00000080: f55e 08be 17cb 94be a31b 833e dfcd 1a3c
00000090: 895e 05bf 6cba aa3f 9453 963e 989c 3f3e
000000a0: 6379 983e a843 bf3b 290e a83f 381c 29bf
000000b0: 0a03 6bbe 5562 31bf 5d9c febd 4b25 9bba
000000c0: 514c 6dbb 090f f93a 757b 833b 6b0f c439
000000d0: 0196 c7ba 786f 84b9 e5e6 ac3f b26c 263e
000000e0: df48 78be a4fc 8fbd 9196 f5be 4d3a ccbb
000000f0: 302f 723e e259 0b3f beda 153e dcff adbd
00000100: 7b83 8f3e 4c80 7abd f6a0 cfba 37c2 1f3b
00000110: 733c a33b 6af4 a43b da1e f23b cc14 4e3a
00000120: e708 dd3f f1c4 8e3e c110 96be 4b34 d9be
00000130: 2ded 56be 9e62 0cbd f375 203f dfb2 b9bd
00000140: 756d babe 1dcb 16bf a9db 18bc 0849 113d
00000150: 2d95 91be a30d f0be b4cf 813e ed37 fd3e
00000160: da37 e23e 4a33 cf3c 2fd1 79bf b5f2 333f
00000170: 25c7 4c3d c1df d43e f459 c9bd fca4 6ebc
00000180: d285 a73e 5de0 ae3f b57c 083f 6d7a 123f
00000190: 37bf 8e3e 7585 8c3c 3bbe b23f 3587 763e
000001a0: f58a 14bf 8b04 e0bd cd79 72be 7e5d 553d
000001b0: 78f2 883e 80c5 e53e 5be9 803e b2b1 813e
000001c0: ce63 313e 23fc 5fbc 4fdf 773f 09a1 be3e
000001d0: fa81 4d3d 507d c3bd 37a7 153e ed02 f73a
000001e0: 0ad4 7dbf b6ea 4fbf fa53 093f 4133 313f
000001f0: 7b38 fd3e d3f7 1e3d 3b1e 563f c971 a53e
00000200: 7df9 b73d d05b 25ba b2d6 0e3e d50d 41bc
00000210: 0396 81bf 5714 b13f b270 9c3e 7ae4 273f
00000220: d510 083e 6f4b babc 43b8 863f 672b 003f
00000230: 29ef bc3e d411 ff3d 3ddc 45bd 2239 f03a
00000240: de18 fa3f a5f5 56bf cde2 38be e261 dfbe
00000250: 6050 5ebe 8147 b0bc 0ce5 253f 0129 633c
00000260: 24dc 903d 2e55 e83d aa73 533e 38f7 a53c
00000270: 3206 fb3d c166 00bc 1000 a93e 3e27 ae3e
00000280: 297e 013e 7b9d 61bb 4aa5 47bf 1990 a2bd
00000290: 6d9a 90be 083f 78be 76ea a2be e01f 59bb
000002a0: 59b0 b4bf 1fdf 8c3e 870b 2a3f 5fc1 193f
000002b0: cd16 96bd 25c1 753c 42b6 673e 2f66 e53b
000002c0: 79c2 473e c87f 8f3e ac07 f73b 703b 95bd
000002d0: 1ef0 97bf 2a19 2fbe 0405 aa3e 6d5a 8d3e
000002e0: 8a7e ab3c 82f8 81bd 499e 113f 86f4 8c3e
000002f0: 1959 523c 2f49 51bf e72e 423d 1dc5 4b3d
-0.48528033 1.2706351 0.1905718 0.16221088 0.10291613 0.001862962 -2.0568907 -0.118299946
0.3303396 0.7513494 0.15821955 -0.015231737 2.4720635 -0.26386422 -0.4420347 -0.42838314
-0.3029565 0.0023045065 -0.6104669 0.5383152 -0.0031825728 -0.12649617 0.26552922 -0.008617921
0.008213675 -0.0061571556 -0.00037515638 -0.013524082 -0.005407902 -0.00020093948 0.16897051 0.10889096
-0.13317473 -0.29061195 0.25607023 0.009448498 -0.52097374 1.3338141 0.2936064 0.1871208
0.2978011 0.0058369227 1.3129321 -0.66058683 -0.22950378 -0.6929067 -0.12432168 -0.0011836676
-0.0036208818 0.0019001673 0.00401252 0.0003739552 -0.00152272 -0.00025260053 1.3507963 0.16252401
-0.24246548 -0.07030609 -0.47966436 -0.006232536 0.23650813 0.54434025 0.14634225 -0.08496067
0.2803 -0.06115751 -0.0015840817 0.0024377236 0.0049815713 0.0050340192 0.0073889317 0.00078613753
1.7268342 0.2788463 -0.29309657 -0.4242271 -0.20988913 -0.034273736 0.62679976 -0.0906732
-0.36411634 -0.58903676 -0.009329715 0.03547004 -0.28434125 -0.46885404 0.25353777 0.4945673
0.44183236 0.025293011 -0.97584814 0.70292217 0.049994607 0.4157696 -0.0983161 -0.0145657025
0.32719284 1.366222 0.5331529 0.57218057 0.2788026 0.017153481 1.3964304 0.24075015
-0.5802453 -0.109383665 -0.23679276 0.052091114 0.2674749 0.44877243 0.25178036 0.25330883
0.17323229 -0.013670954 0.96825117 0.37232235 0.050172783 -0.09545386 0.14614569 0.0018845476
-0.9915167 -0.81217515 0.53643763 0.6921883 0.49457154 0.038810562 0.8363988 0.32313374
0.08983133 -0.00063079316 0.13949087 -0.011783083 -1.0123905 1.3834332 0.3055473 0.65583
0.13287671 -0.022741048 1.0524982 0.50066227 0.36901215 0.12454572 -0.04830574 0.0018327574
1.9538839 -0.83968574 -0.18055268 -0.43629366 -0.21710348 -0.02151847 0.6480262 0.013864757
0.070732385 0.11344372 0.20649591 0.020259485 0.12257041 -0.007836998 0.3300786 0.34014314
0.12645783 -0.003442614 -0.77986586 -0.07937641 -0.28242818 -0.24242795 -0.31819504 -0.0033130571
-1.4116317 0.27513978 0.6642384 0.60060686 -0.07328568 0.0149996625 0.2262812 0.0070007066
0.19507779 0.28027177 0.0075387564 -0.072867274 -1.1870153 -0.17099443 0.33206952 0.27608052
0.020934362 -0.06346227 0.5688215 0.27530307 0.012838625 -0.81752294 0.04740801 0.04974853

actor.0.bias f4 [32]
00000000: 75be 773c 1d47 e03e 5a53 7b3e 14fb 0bbf
00000010: 40cc 15be 1f35 a6bf 0a4f 683f 9b6e 1ebf
00000020: ebd1 55be 3ed7 8c3e 78ef d73e f5fe 96be
00000030: 0128 f4bd c893 aebe 31cd de3e 64ae 253f
00000040: a432 fb3e cfe2 47be 75f8 033f 0ef3 223f
00000050: cbe3 873e fb2b 223f 8176 f83e 1b85 c43e
00000060: fcca 0e3f 3385 c63e 5475 ed3e dbd4 903e
00000070: 30bf 0b3f 44fe e3be af78 103f 69ab 953e
0.015121092 0.43804255 0.24543515 -0.5467999 -0.14628696 -1.2984961 0.90745604 -0.6188752
-0.20880859 0.27507967 0.42174888 -0.29491392 -0.11921693 -0.34097123 0.43515924 0.64719224
0.49062073 -0.19520114 0.5155099 0.6365212 0.2654098 0.6334836 0.4852791 0.383828
0.5577848 0.38773498 0.46378577 0.28287396 0.54588604 -0.44529927 0.5643415 0.29232338

actor.2.weight f4 [32, 32]
00000000: af4e 8b3f a500 8b3e c624 843e da76 033f
00000010: 137a 2d3b de89 0f3f 52ec 503e 6a67 03bd
00000020: e4f9 1a3b 820d 2a3e 007e a8bd 783a 8b3c
00000030: 40b2 4e3e 8bac 0d3d 9f09 003e dee1 3dbd
00000040: f06f 623e f451 d43d b588 813e 6b2e c03e
00000050: 2b5b b33d 0571 893e 9cf9 9e3e 18e1 af3d
00000060: c831 edbd c02a 053e 15a9 6a3e 7528 efbd
00000070: 0c1b e43d fc1c 2abe 9b39 013e 5acc 763e
00000080: b4df 0dc0 730d d2be 66ea da3c 46c4 dfbd
00000090: bee8 4bbc 1aa7 bfbe b428 f3bc 0b9a 433e
000000a0: c585 17bc 9b92 a5bd 7375 8f3d 6abd 483c
000000b0: 73f3 69be 23ef 373d d314 6a3e 07cb ca3e
000000c0: 5adc 6fbd 970a 503b db6f b5be 452e 8dbe
000000d0: 8f9d 953c 2888 8ebe 5b4d 1ebf 2ce3 ee3c
000000e0: 63e9 743e 2e7b 34be 4e97 49be 4cd6 2f3e
000000f0: fa82 31be 64b3 9b3d 666d 0bbe 28bc 33be
00000100: 521c a9bf 0e65 023f b112 20be 105e adbe
00000110: f56b a33b 6ae3 d7be 6777 a8bf 9c25 96bf
00000120: 4895 8d3c b282 7b3b aedd 14be 19bd 2a3c
00000130: 2f6b bdbe 0eed 38be fcbb b03e 6cd2 d43d
00000140: b7f5 c6bf 020a 273d 03d3 1bbe 36b8 06bf
00000150: c0f3 d73e cc8d 3dbe bafb 54bf 93d8 22bf
00000160: 8d32 513d 2a10 a0bd 5f50 c3be 35ad e33e
00000170: b9b3 5d3e 0bbd a43d 79cf c93e 9e28 343e
00000180: 4cc1 8a3f 630a 8c3e 7c10 853e e405 073f
00000190: 2467 00bc 1afe 0a3f 1777 573e e892 e7bc
000001a0: b6c6 303c 378e 163e 15f2 b4bd 5f0b 263c
000001b0: d61c 513e ef6d 163d d4be de3d 7475 debc
000001c0: 2e0a 6b3e 2193 cc3d bca6 773e a44d b93e
000001d0: 5211 053e bf92 873e 7453 9b3e 4ea9 b43d
000001e0: 9932 dabd 324a ef3d 0ad9 6c3e f721 c1bd
000001f0: 9647 e53d 5319 14be fcda da3d 92ac 783e
00000200: b312 88bf c0ab 6dbe 131b 0f3e 7aac 84be
00000210: 97ea c9b9 cc99 b2bd 54a1 f8be e6bd b73e
00000220: 0785 8abc 2881 903e dfe8 343c 4e1c bfbb
00000230: 21da b6bd 9576 20bc bcbb 7c3e 6aa4 74be
00000240: 9bb6 aebe 9413 883d 0284 43bf 42d6 8fbf
00000250: f008 4d3e 4345 98bf d042 06bf bda1 073e
00000260: d2ae e33e fe2d dfbe bfbc d8be d172 203f
00000270: 185c 993e 6764 8e3d 261e f23d b567 a93d
00000280: 3887 75bf b077 b5bc e7e0 c0bf 830b 98be
00000290: 6371 893c 0e77 2bbf f06a 763d b432 01bf
000002a0: a244 bebb 6ddf eb3d 7308 93bb 15c5 a83a
000002b0: 6483 68be 51b8 d3be f17e 873e bfe7 e83e
000002c0: 96b9 343d dce7 083f 7a87 26be ffff df3d
000002d0: 700d 36be 1400 6b3e fa19 ad3d e177 a83e
000002e0: 385f 99bf c770 c03d 7548 8abc 0ec2 163f
000002f0: 64e1 af3e 7ca5 ea3d 807c 103e f984 533e
00000300: a13e d5bf e6cd aabf b7f2 7cbf 50eb 1ebe
00000310: 88cf c43c f6c2 62be 3974 173e 1e6d 05bf
00000320: d452 153c 2f49 573d 9ac4 49be 4652 9dbc
00000330: 2e7a 9fbe f390 1dbe 1aaf 41be 72e1 99bc
00000340: bcaf 943e 9e08 213e 5e17 213c 8003 2bbe
00000350: cfaa 85bf 790b 22be 30dd bc3d bde3 983e
00000360: b16b 01bf a685 c5bd 557f 22bf 1090 013e
00000370: 80ad 82bf 6639 a43d 809d 3abe 5d73 27bd
00000380: 9a61 8a3f b73a 883e 9daa 713e 1771 033f
00000390: d129 62bb ef22 0b3f 93fc 683e c41f 1cbd
000003a0: 8858 b8bb 0c7e 163e aaaa 04be 9964 78bb
000003b0: ab12 343e ec5d 313c bd79 c93d 733b 59bd
000003c0: 332c 693e 7939 c33d ed18 703e 61dc b53e
000003d0: 79fa b33d f591 893e bdab 9b3e 5c3b be3d
000003e0: c478 00be c7b6 cc3d 7fa5 553e 95e6 f1bd
000003f0: 77c3 c83d 0440 39be c1fd e43d eb3a 773e
1.0883387 0.2714893 0.25809306 0.5135323 0.0026470467 0.56069744 0.20402649 -0.032081045
0.0023647482 0.16606715 -0.082271576 0.016995654 0.20185184 0.034588378 0.1250367 -0.04635798
0.22113013 0.10367194 0.25299612 0.37535414 0.08757623 0.2684404 0.31049812 0.08587855
-0.11581761 0.13004589 0.22916062 -0.116776384 0.11137971 -0.16612619 0.12619631 0.24101391
-2.2167788 -0.41025886 0.026723098 -0.10926108 -0.012445627 -0.37432176 -0.029682495 0.19101731
-0.009248202 -0.080846034 0.070048235 0.012252191 -0.22846775 0.044905793 0.22859506 0.39608023
-0.058559753 0.0031744593 -0.354369 -0.27574363 0.018263606 -0.27838254 -0.61836785 0.029161058
0.23917155 -0.17625114 -0.19686624 0.17171592 -0.1733512 0.076025754 -0.13615951 -0.17552245
-1.3211768 0.5093545 -0.1563213 -0.33860826 0.0049872347 -0.4216569 -1.3161439 -1.1730227
0.017283097 0.003837746 -0.14537689 0.010421061 -0.36995837 -0.18059179 0.3451842 0.10391697
-1.5543736 0.04078103 -0.15217213 -0.52624834 0.42178154 -0.18511122 -0.83196604 -0.63611716
0.0510736 -0.07815583 -0.38147256 0.44468084 0.2165059 0.080438696 0.39416102 0.17593619
1.084024 0.27351674 0.2598914 0.52743363 -0.007837091 0.5429398 0.21041523 -0.028268293
0.010789564 0.14702688 -0.08835236 0.010134547 0.20421156 0.036725935 0.10876241 -0.027155615
0.22953102 0.09989 0.24184698 0.36192048 0.12994888 0.26479146 0.30337107 0.08821355
-0.10654182 0.116840735 0.23129669 -0.094303064 0.111952946 -0.14462785 0.10686299 0.2428458
-1.0630707 -0.23210049 0.13975172 -0.2591284 -0.0003851249 -0.08720741 -0.48560584 0.3588707
-0.016909136 0.28223538 0.011041849 -0.0058322316 -0.089283235 -0.009793897 0.2468099 -0.23890844
-0.34123692 0.06644359 -0.763733 -1.1237261 0.2002294 -1.1896137 -0.524457 0.13245292
0.44469315 -0.43589777 -0.42331502 0.62675196 0.29953074 0.06952744 0.118221566 0.08271734
-0.9590945 -0.022151798 -1.5068635 -0.29696283 0.0167777 -0.6697854 0.060160577 -0.5046799
-0.0058065215 0.115172245 -0.004487091 0.0012876118 -0.22706372 -0.4135156 0.26464036 0.45489308
0.0441223 0.5347879 -0.16262618 0.10937499 -0.17778563 0.22949249 0.0845222 0.3290396
-1.1982183 0.093965106 -0.016880253 0.58889854 0.34351647 0.11457345 0.14109993 0.20656194
-1.6659738 -1.3344085 -0.98807853 -0.15519452 0.02402474 -0.22144684 0.14790429 -0.52119625
0.009113986 0.052560028 -0.19703904 -0.01920427 -0.31147903 -0.15387325 -0.18914452 -0.018784259
0.29040325 0.15725943 0.009832231 -0.16700554 -1.0442752 -0.15824689 0.09221876 0.2986125
-0.5055495 -0.09644632 -0.63475543 0.12652612 -1.0209198 0.080187604 -0.18224144 -0.040881503
1.0811036 0.26607296 0.2360024 0.51344436 -0.0034509788 0.5435018 0.227526 -0.03811623
-0.005625788 0.1469652 -0.12955728 -0.0037901758 0.17585246 0.010825615 0.09837673 -0.05303521
0.22770767 0.095324464 0.23447008 0.35519698 0.08788008 0.2686917 0.30404463 0.09288666
-0.12546068 0.099957995 0.20863913 -0.11811558 0.09802907 -0.18090826 0.11181212 0.24143569

actor.2.bias f4 [32]
00000000: ffe8 9a3c e0c7 713e c571 d23e 1f9d 463c
00000010: d4f7 633e 74d8 c73e 0b71 8c3e 90b1 d93d
00000020: 3897 82bc 0645 273f 0a3d 07be 840f 0b3f
00000030: f349 fb3e a5e7 1c3f 78e8 f43e b4ae 9abe
00000040: 6cec a53e 4262 d83d 40bc e0bd 9ef3 18be
00000050: cb0d b93d 4b2b e53e 7a34 e43c de50 963e
00000060: 3471 623e b055 04be 1b71 303e b4bf 113f
00000070: 1fb5 2e3e 77f4 41bd 4340 70bc 5998 e83d
0.01890993 0.23611403 0.41102424 0.0121224215 0.22262508 0.39032328 0.27429995 0.106295705
-0.015941247 0.65339696 -0.13206878 0.5432055 0.49079856 0.6129096 0.4783361 -0.30211413
0.32406938 0.10565616 -0.10973406 -0.14936683 0.09035834 0.44759592 0.027857054 0.29358572
0.22113496 -0.12923312 0.17230646 0.5693314 0.1706128 -0.04735228 -0.014663759 0.11357183

actor.4.weight f4 [1, 32]
00000000: 1922 49be f4f3 023f 9280 2d40 3d39 48be
00000010: 8277 c13f d016 8f3f 4fc8 b63f 05e5 51be
00000020: 110c 54be cce7 8c3f 2b1b 743f aebc e13f
00000030: 9fc3 3b3f 5906 a93f a75a 863f 6e66 d33f
00000040: 3085 9f3f 921a 3ebe 1160 04bb 88a9 15bc
00000050: 3109 42be 9d87 903f 10a0 5cbe 7c48 be3f
00000060: acd0 b93f 68dd c9be 0676 c23f bab6 bb3f
00000070: 5c7c 92be f7e9 75be 4919 56be bb42 bf3f
-0.19641913 0.5115349 2.7109723 -0.19553085 1.5114596 1.1178837 1.4279879 -0.2049752
-0.20707728 1.1008239 0.95353955 1.7635705 0.7334537 1.3205062 1.0496415 1.6515634
1.2462521 -0.18564823 -0.0020198862 -0.009134658 -0.18948819 1.1291386 -0.21545434 1.486587
1.4516807 -0.39426732 1.5192268 1.4665139 -0.28610504 -0.24015032 -0.20908083 1.494224
