TD3/7_Position_TD3/EnvUAV/Net/Y_Actor.pth (torch, 7191 bytes, 5 tensors)

actor.0.weight f4 [32, 6]
000000 60 9d 0a bc 11 62 2f 3c 2a dd 20 bc 15 ae 0b 39
       -0.008460373 0.010704533 -0.009818355 0.00013320924
000010 0b 9d 3e bb a3 c0 1a 3b 77 6d 59 be 8f c0 ec bd
       -0.0029085304 0.0023613356 -0.21233164 -0.11560165
000020 80 f8 65 bd 3d 2e 24 3d bc 19 86 3d ca ca 2d 3d
       -0.05614519 0.04008316 0.06547877 0.042429723
000030 31 52 85 be 69 a4 a3 be 61 12 18 bd 83 7a a2 3d
       -0.2603927 -0.31961372 -0.037126902 0.079335235
000040 64 92 3e 3d a8 45 78 3d 40 82 7c 3f 1c b7 11 3e
       0.046526328 0.060613304 0.98636246 0.14230007
000050 d6 3a aa bd 95 85 41 3e ab 81 3b bd a2 f9 70 bb
       -0.08312003 0.18898614 -0.045777958 -0.0036769887
000060 d2 cf 9e be 82 a1 1c be c3 10 23 bd 64 c2 f8 3c
       -0.3101793 -0.15295985 -0.039810907 0.03036613
000070 12 3c b5 3d d1 09 58 3d 0e 05 a7 bd 65 d0 3e 3d
       0.08849348 0.052743737 -0.08155261 0.04658546
000080 a3 37 c6 3d f7 6f 26 be 8f 4d b8 3d c8 ae 46 be
       0.096785806 -0.16253649 0.08999168 -0.19402611
000090 49 1b 54 3f db 85 30 bd 1d f8 0a 3d 67 d7 1e bc
       0.82854134 -0.043096405 0.033928026 -0.009694911
0000a0 5d b3 2a bd be e4 8d b9 ca 36 82 be 9a 88 f4 bd
       -0.04167496 -0.00027064042 -0.25432426 -0.11940117
0000b0 a7 84 85 3c 87 89 ca bc 64 62 81 3d ec 68 fc 3c
       0.016298605 -0.024723781 0.06317595 0.03081175
0000c0 e1 8f 57 3f d1 2f c8 3e 6b d9 fe 3c 99 76 95 3d
       0.84203917 0.3909898 0.031109532 0.07298011
0000d0 26 a3 03 3d 36 b2 09 3c 8b 55 04 3f 70 74 e8 3e
       0.032138012 0.008404305 0.5169303 0.45401335
0000e0 1c 9f 0c 3e d1 4d c1 bd c4 f7 0d be bd 32 b3 b9
       0.1373257 -0.094386704 -0.13864046 -0.00034179343
0000f0 83 0a 2f 3f 72 ed f1 3e 48 9c 84 3d 6b bc e5 bc
       0.68375415 0.4725147 0.06475121 -0.028043946
000100 59 cf 55 bd 9f e7 af ba 32 f8 fd bd ff 46 8d 3e
       -0.052199695 -0.0013420469 -0.12400855 0.27593228
000110 b7 93 c1 3d f1 a4 14 bd 16 0b 95 be 6a 12 34 3c
       0.094520025 -0.036290113 -0.2911002 0.010990718
000120 b0 a1 5e 3f 8b 2b 0d 3f 2e 6d e4 3d ae d7 84 bd
       0.86965466 0.55144566 0.11153637 -0.0648645
000130 1a c5 03 3d fc 04 89 3a e3 49 1d 3f 57 2d e8 3e
       0.032170393 0.0010453756 0.6144087 0.45347092
000140 3a 6e 25 3d 42 b7 c5 bc 5a 23 8b bc 13 79 0f 3b
       0.040388323 -0.024135236 -0.01698463 0.0021892234
000150 0c 30 6e be 0e 4d ff 3d 63 09 cf be 01 59 c2 3e
       -0.23260516 0.12465869 -0.4043685 0.3795853
000160 71 4f 1b 3e a5 7e 81 bc 0b 5a 85 3e a1 38 bd 3e
       0.15167023 -0.01580746 0.2604526 0.36957267
000170 4e 23 40 3e be 65 51 be 25 3c 39 3c 6b d5 7a bb
       0.18763468 -0.20448968 0.0113058435 -0.003827418
000180 72 b2 0c 3f 0d ff ee 3e c8 c3 03 3e 47 d0 6b bd
       0.54959786 0.46678963 0.12867653 -0.057571676
000190 bd 1c 59 bd 46 38 bc 3b ed d8 f8 3e 4d fd ec 3e
       -0.053005923 0.005744013 0.48603 0.46287003
0001a0 f9 50 0e 3e 7c c9 eb bd 77 e8 8c bc 24 a6 46 3d
       0.13898076 -0.115130395 -0.017200692 0.048498288
0001b0 4b 59 a1 be 05 d4 32 be 44 fe 0e bd 67 09 14 3c
       -0.31513438 -0.17463692 -0.034910455 0.009035445
0001c0 d6 cf b8 3c 3c bf f1 3b ec ca 37 3f 7d ca 03 3f
       0.022560041 0.0073775332 0.7179401 0.5148085
0001d0 9a a1 82 3d f9 61 98 bd 3d 09 8e 3d 7f 66 81 bd
       0.06378479 -0.07440562 0.06935356 -0.06318378
0001e0 3b 55 a4 be fd 99 57 be 31 06 d4 bc da b3 48 3c
       -0.32096276 -0.21054836 -0.025881859 0.012249911
0001f0 0d 8f e6 3c 75 0c 39 3d 03 eb 4d 3e f7 6c 2a 3d
       0.028144384 0.045177896 0.20109181 0.041607823
000200 05 38 d9 bd d8 c4 de 3c f5 bc b2 bd 55 7e 90 3a
       -0.10606388 0.027193472 -0.08727447 0.0011023978
000210 ab db fd bb ca 66 2e 3f f6 b3 be 3d d4 02 fb bd
       -0.0077471337 0.68125594 0.093116686 -0.12256399
000220 90 83 1b bd a5 46 9f b9 2f b0 07 3f 23 76 c8 3e
       -0.037967265 -0.00030379478 0.5300321 0.3915263
000230 15 b0 83 3d 58 7f 25 bd 4a 26 0d bd ab 4e 01 3d
       0.06430069 -0.040404648 -0.034460343 0.031569164
000240 b9 1e 3f bf 3f e2 20 bf bf 10 f7 bd fd 88 19 3e
       -0.74656254 -0.62845224 -0.12063741 0.14993663
000250 70 ef 86 3d 08 b5 7d 3b fb 85 0d bc 5a 7c 60 3b
       0.06588638 0.003871264 -0.0086379 0.0034253807
000260 b5 56 b1 ba 29 77 49 3b 1c 94 d2 bb bd 8a 61 3a
       -0.0013529869 0.003074119 -0.0064263474 0.00086037425
000270 ab 96 3d be 68 f3 74 bd f2 db 49 bc 67 10 cb 3a
       -0.18514507 -0.059802443 -0.012320505 0.0015492559
000280 f1 73 01 3d f4 ea 18 3d ed f9 45 3f 56 b3 0d 3f
       0.03160471 0.037333444 0.7733448 0.5535177
000290 bf 94 a5 3d 87 6b b0 bd 11 05 0b 3d 01 fd 86 bd
       0.08085012 -0.08614259 0.03394038 -0.065912254
0002a0 a4 bd bc be 47 a3 d0 3d f8 66 91 3e 3c a6 a1 be
       -0.36863434 0.10187393 0.2839887 -0.3157214
0002b0 bf 3c e1 bd 66 1b a9 ba 9d 4b e2 3e 81 aa a7 3e
       -0.109979145 -0.0012901842 0.44198313 0.32747272
0002c0 da cc d5 3d 0d bc d3 bd 4e 3f 44 be 7e 78 01 b9
       0.10439463 -0.10338602 -0.19164774 -0.00012347286
0002d0 4d 85 6b bb 14 bc 39 bc 3f 17 21 bc 26 9b 36 bc
       -0.0035937608 -0.011336345 -0.009832202 -0.011145389
0002e0 4a 41 74 3a f0 e6 84 ba a2 f4 94 be 0f 6b ec bd
       0.000931759 -0.0010139626 -0.2909289 -0.11543857
0002f0 f4 08 b4 3c 4b 26 19 bd a9 65 04 3e e1 91 b2 3c
       0.021976925 -0.037390035 0.12929405 0.021798076

actor.0.bias f4 [32]
000000 c8 49 ad be ff 44 d7 3d 13 e6 d2 bd be 91 5b 3e
       -0.33845353 0.10511207 -0.102977894 0.21442315
000010 2a 49 bf bd 95 4c 5b bc 63 b8 a6 3c b1 c3 62 3e
       -0.09340127 -0.013384958 0.020351594 0.22144963
000020 f6 d8 41 3e 9a 57 05 3f 75 37 0c 3f e4 65 b9 3e
       0.1893042 0.52086794 0.5477212 0.3621055
000030 84 ba b0 3e 3e db f0 3e 09 60 a8 3e f3 24 c5 3d
       0.345173 0.4704227 0.3288577 0.09626188
000040 04 cb 01 3f d8 01 0f 3e 02 f2 33 3f a8 17 1e 3e
       0.507004 0.13965547 0.7029115 0.15438712
000050 4a 3c 26 3f d0 be 0f 3f 1a 71 a9 bc 5d 2f ef 3d
       0.64935744 0.5615053 -0.020683814 0.11678956
000060 01 9e db 3e 50 b1 c2 be d5 1e f4 3e b5 ff 85 3d
       0.42893985 -0.38025904 0.47679773 0.06542913
000070 5d df a6 3e 69 db a8 3e ef b0 91 be 91 f1 8a 3e
       0.32592288 0.32979897 -0.28455302 0.27137426

actor.2.weight f4 [32, 32]
000000 3d 86 99 3c 54 9d 8d 3c 28 b1 57 3d 6a 6c c1 be
       0.018740768 0.017286934 0.052659184 -0.37778026
000010 44 39 2f 3d 04 8e a5 3d cb 45 40 be b7 79 1c 3d
       0.042779222 0.08083728 -0.18776624 0.038202014
000020 d3 3b b2 be 44 ae 17 bd 4d 47 b2 be c6 72 34 bc
       -0.34811267 -0.037031427 -0.34820023 -0.011013692
000030 8b 14 bf be eb 4d ca be 23 65 9e 3d 1e a1 35 bd
       -0.3732036 -0.39512572 0.07734134 -0.044343106
000040 60 08 58 bd 27 9f 24 bd 0a 02 a0 3d 9c da 9b bc
       -0.052742362 -0.040190842 0.07812889 -0.01902514
000050 28 96 a8 3d a5 68 c5 3c ca ac 09 be 15 7d 6c bd
       0.08231765 0.02409775 -0.1344482 -0.057736475
000060 81 15 63 3f b4 1a b4 3b 1b b1 31 3d a7 f9 18 bd
       0.8870469 0.0054963473 0.04338179 -0.037347462
000070 e2 c8 56 3d 03 e9 c0 bd 95 70 b8 3b 43 5d 19 3d
       0.05243767 -0.094194435 0.005628655 0.037442457
000080 2f f0 5e 3b 67 7f 95 3c d4 3c 67 3d 9d 41 65 be
       0.0034017672 0.018249227 0.056454495 -0.2238831
000090 09 10 18 3d 97 50 83 3d 45 a3 83 be b9 53 29 3d
       0.037124667 0.06411856 -0.25710502 0.04133961
0000a0 b1 93 cf be 09 35 be bd 8b ef 9c be 3b ae 59 3d
       -0.40542367 -0.092874594 -0.30651507 0.053144675
0000b0 2e 6e a6 be 6b 3b 78 be 97 ef c2 3d 14 2b 00 bd
       -0.32505935 -0.24241416 0.095183544 -0.031291083
0000c0 dc ac 05 be f0 b3 10 be 0a 22 a3 3d d8 c1 4d bd
       -0.13054222 -0.1413114 0.07965477 -0.050233692
0000d0 ff 3d 98 3d b2 2d 53 3d 8e 88 c1 bd 7c 41 eb bd
       0.074337 0.05155725 -0.09449874 -0.114870995
0000e0 e9 f5 56 3f 78 53 23 3c 53 e0 12 3d a8 7b aa bd
       0.8396898 0.009968631 0.035858463 -0.08324367
0000f0 08 14 63 3d 1a 03 9a bd ee 05 a0 3a 64 3b 42 3d
       0.055439025 -0.07520123 0.0012208798 0.04741992
000100 2b 2b 2f 3c aa 84 36 bb f7 c9 9a 3c d6 a1 a7 bb
       0.010691444 -0.002785007 0.018895132 -0.005115728
000110 36 1b ae ba 50 a3 ae ba 2a 57 d0 bc ef ff b5 3a
       -0.0013283256 -0.0013323817 -0.025432188 0.0013885478
000120 e7 45 4e 3c 4d 25 8a 3c d8 8d f5 ba b8 a8 27 b9
       0.012589908 0.01686349 -0.0018734289 -0.00015989214
000130 4c 65 15 bb a2 67 ed 3c 52 25 42 bc 96 4a 06 bc
       -0.0022795973 0.02898008 -0.011849718 -0.008196494
000140 42 a2 7a bc c0 a2 35 bc 16 a8 ae bb 3b c3 74 3a
       -0.015297474 -0.011086166 -0.005330096 0.0009336953
000150 44 dd 53 bc bf f5 8d 3b 94 bb b9 3b fd 06 46 bc
       -0.012931172 0.0043322737 0.005668113 -0.012086627
000160 32 1f cb 3b 90 4d 64 3c b5 14 58 bc db 08 0e 3b
       0.006198787 0.013934508 -0.013188531 0.0021672759
000170 94 04 ba ba a1 2c 60 bc 81 10 b8 3b 2d 7b ae bc
       -0.0014192038 -0.013682515 0.005617202 -0.02129897
000180 4f e4 25 3c ab 23 0e 3d 16 0f 5a 3d a3 bc 83 be
       0.010125234 0.034701984 0.053237043 -0.25729856
000190 03 75 37 3d 76 17 b4 3d 6e e3 6e be 09 c9 0a 3d
       0.044789325 0.08793537 -0.23328945 0.03388313
0001a0 53 d2 ef be df b6 dc bd d8 4d 9f be ba 11 0d 3d
       -0.46840152 -0.107770674 -0.31114078 0.034440733
0001b0 46 11 bf be 1e 1b 83 be 9a 33 d3 3d 3f c6 39 bc
       -0.37317866 -0.25606626 0.103125766 -0.011338769
0001c0 37 dd 09 be ad 05 01 be 64 32 ac 3d d2 35 25 bd
       -0.13463293 -0.12599821 0.08408049 -0.04033453
0001d0 dc 98 a7 3d ef 4d e3 3c ed e3 e3 bd ce 07 02 be
       0.081834525 0.027747123 -0.11127458 -0.1269829
0001e0 3c ec 58 3f ea 97 b8 bb 3b 8e 56 3d 2d 99 aa bd
       0.84735465 -0.005633344 0.052381735 -0.08329997
0001f0 21 5a 6d 3d da fc 9a bd 53 22 1e 3c 2d 09 41 3d
       0.05794728 -0.07567759 0.009651738 0.04712789
000200 2c ea 1f 3b 07 16 f4 3c d6 9f 2d 3d 86 1d 73 be
       0.0024401052 0.02979566 0.04238876 -0.23741731
000210 d8 c5 08 3d 38 de 5a 3d 89 ce 7f be e9 4c 25 3d
       0.033391804 0.05343458 -0.2498113 0.04035655
000220 73 96 db be 63 02 d6 bd 0c 7a 9b be a3 6d 20 3d
       -0.4288822 -0.10449674 -0.30366552 0.039167058
000230 99 77 a0 be da 9d 7d be 48 a9 ef 3d 7e 69 0a bd
       -0.31341246 -0.24767247 0.1170221 -0.03379201
000240 a8 2c ff bd 1d a7 e6 bd 93 6c 8f 3d 50 75 76 bd
       -0.124596894 -0.11262343 0.07003131 -0.06017047
000250 a3 71 7d 3d a7 93 2a 3d 8d 4f bf bd e4 28 00 be
       0.06187595 0.04164472 -0.09341345 -0.12515599
000260 ef 51 5c 3f b5 dc 9d bb 88 bc cf 3c 72 c4 90 bd
       0.8606252 -0.00481757 0.025358453 -0.07068719
000270 53 e9 27 3d 0f f5 87 bd 60 78 5d 3c 89 41 38 3d
       0.040994 -0.06638538 0.013517469 0.044984374
000280 87 96 7a bb e8 8a de ba 66 5c bf bc d8 bf c3 3d
       -0.0038236694 -0.0016978653 -0.023359489 0.09558076
000290 04 11 1e bc e9 7b 81 3c 3b 8d 38 3e 2f 2a 7c 3c
       -0.0096476115 0.015806155 0.18022625 0.015390917
0002a0 52 da 3c 3e f0 60 b7 3d 8c e5 e0 3e c7 26 c9 3c
       0.18442658 0.08954036 0.4392513 0.024554623
0002b0 4f 03 dc 3e 62 74 d7 3e f3 40 32 bd af 63 69 3d
       0.42971274 0.4208098 -0.04351897 0.05697983
0002c0 da a7 f5 3d 28 44 fc 3c b5 47 79 b9 4d e3 8b 3d
       0.11994906 0.030794218 -0.00023773203 0.068304636
0002d0 5e 9a f8 3a 5d 3c 2a 3e e7 e5 fd bd 9a ba 98 3d
       0.0018966903 0.1662459 -0.12397366 0.074574664
0002e0 b9 88 e7 be 24 dd 0a bc 86 3e 14 3c 52 13 a6 3d
       -0.452215 -0.008475576 0.00904811 0.08109154
0002f0 13 41 8d 3a 2f 9d 0e 3e fa d4 a6 bc a8 86 82 ba
       0.001077684 0.13927148 -0.020365227 -0.0009958344
000300 ee 65 1b bc 99 60 18 3d 74 03 a0 3d 27 85 90 be
       -0.009484751 0.037201498 0.07813159 -0.28226587
000310 3b 14 82 3d 23 37 04 3e 1e 16 73 be 8f 71 2a 3d
       0.06351515 0.12911658 -0.23738906 0.041612204
000320 f2 d4 ef be 76 f3 8a bd a1 b6 de be 20 13 08 3d
       -0.46842152 -0.06784718 -0.4349871 0.033221364
000330 03 f2 ed be fc d7 97 be ad 5e dc 3d f0 eb 9e bc
       -0.46473703 -0.2965697 0.107602455 -0.019399613
000340 74 5e ca bd d7 c6 11 be 58 c8 ea 3d f3 9b 34 3b
       -0.09881297 -0.14236008 0.11463994 0.0027558773
000350 68 e1 ad 3d 19 a9 85 3d 71 d1 f2 bd c6 3d 06 be
       0.084902585 0.065263934 -0.11856354 -0.13109502
000360 40 1f 78 3f 8a fc 84 bb 73 cf 2d 3d 13 d3 7f bd
       0.96922684 -0.0040584253 0.042434167 -0.062457155
000370 fa 51 aa 3d d8 1f 99 bd e6 bb 9d 3c 0d ff 94 3d
       0.08316417 -0.07476777 0.019254636 0.072752096
000380 e0 ef a0 3b 56 57 d2 3d f1 b7 99 3d ec a8 df 3e
       0.004911408 0.10270564 0.07505787 0.43683565
000390 db 77 ad 3d 01 88 10 3e 9e be aa 3e f6 ba ae 3d
       0.08470126 0.14114381 0.33348554 0.08531754
0003a0 f0 79 bd 3e db 5b 0d 3e 6c 71 ae 3e 73 b7 ba 3d
       0.37007093 0.13804571 0.3407091 0.091170214
0003b0 64 94 b2 3e 0d 21 c5 3e 08 46 c9 3c 21 13 1a 3e
       0.34878838 0.38501778 0.024569526 0.1504636
0003c0 00 63 29 3e 91 c4 26 3e 1f 5a a6 3d cf 1f 3b 3e
       0.16541672 0.16285922 0.08122658 0.18273853
0003d0 e0 80 aa 3d cb 8d f3 3d b1 f2 09 3e de 08 25 3e
       0.08325362 0.11892279 0.13471486 0.16116664
0003e0 41 34 39 bf 1d 4c ec bb 08 a7 d2 3d d3 20 3a 3e
       -0.7234536 -0.007211222 0.10285765 0.18176584
0003f0 0e 66 b5 3d 5a 36 58 3e 4e 76 9e 3b 13 9b a3 3d
       0.08857356 0.21114483 0.0048358804 0.079885624

actor.2.bias f4 [32]
000000 4d 3f 9f 3e 6e 6d a3 3e 88 b5 17 be c1 ea aa 3e
       0.31102982 0.31919426 -0.14815342 0.33382228
000010 0a 4a bd 3e 2b 73 a2 3d b4 7d 82 3e b8 fa a1 bd
       0.3697055 0.07932123 0.2548653 -0.07909149
000020 54 a7 a1 bd c4 9a 15 bd ad a4 c8 3e c9 e3 0b be
       -0.078932434 -0.03652455 0.39188138 -0.13661112
000030 ca 6c e8 bd 8f 92 84 3e 4e 2d ca bd ed a1 98 bd
       -0.11348875 0.25893065 -0.098719224 -0.0745276
000040 6e e2 98 3e ff 03 d0 3e 2b 5b 0d be 64 26 a7 3e
       0.29860252 0.4062805 -0.13804309 0.32646477
000050 24 8a d0 3e 18 cd 87 3e 1a 3f 00 be b3 b7 0a be
       0.40730393 0.26523662 -0.12524071 -0.13546638
000060 30 89 b7 3e b8 6b 57 38 e8 7d 10 be ff f6 db 3e
       0.35846853 5.1360315e-05 -0.1411053 0.4296188
000070 4d 98 a4 3e 95 e8 a5 3c 4c 87 d6 3e 6a 2c b3 3e
       0.32147446 0.020252505 0.41900098 0.34994823

actor.4.weight f4 [1, 32]
000000 67 5c 43 bf 30 57 e0 be e6 a8 bb 3b a2 87 dc be
       -0.7631287 -0.4381652 0.0057269214 -0.4307223
000010 5d 1b ef be 8d 65 64 3e 7b a2 00 bf ae c0 6c 3e
       -0.46700564 0.22304364 -0.50247926 0.23120376
000020 86 07 16 bc 9b 0f 81 3e 9e 54 f6 be 49 8c 00 3c
       -0.009157067 0.2520722 -0.48111433 0.007845947
000030 2d e0 34 3c dc cf e1 be 20 a5 e5 3b 30 40 90 bc
       0.011039776 -0.44103897 0.00700821 -0.017608732
000040 1b 4c 09 bf eb 77 af be 6b fa 96 3e 7c 64 e4 be
       -0.5363175 -0.34271178 0.2948793 -0.44607913
000050 e6 ac bb be 92 37 c9 be 87 b3 3b 3c c0 0a c1 3e
       -0.3665535 -0.3930021 0.011456377 0.37703514
000060 aa cb f1 be 5d c2 6e 3e 18 ed a0 bb c9 0e e9 be
       -0.47225696 0.23316331 -0.0049110763 -0.45519093
000070 73 26 fd be e4 d9 6b 3e e2 27 fd be d9 4c e8 be
       -0.49443397 0.23032337 -0.4944449 -0.4537113
