TD3/7_Position_TD3/EnvUAV/Net/Yaw_Actor.pth (torch, 6807 bytes, 5 tensors)

actor.0.weight f4 [32, 3]
000000 77 47 33 bf 9a 1d 09 be be 33 0b bc 1b be 33 3c
       -0.7003092 -0.13390198 -0.008496223 0.010970618
000010 24 5b ed bb 3c 79 68 3b 18 99 ba be 08 95 e0 bd
       -0.007243531 0.0035472652 -0.36444926 -0.109659255
000020 4b 80 23 3d 5b c3 83 3e cd a8 1b 3e 7c d6 df bd
       0.03991727 0.25734982 0.15201111 -0.109295815
000030 cf e3 23 bf f6 2d de bc 42 51 ec bc df 8f c2 b7
       -0.64019483 -0.027121525 -0.02884734 -2.3193597e-05
000040 63 aa 30 bc da 86 e4 b9 3b c1 8f bf 51 f3 25 bd
       -0.010782811 -0.0004358802 -1.1230844 -0.040515248
000050 b1 eb 3f 3b 24 99 99 bf fe d1 45 3c 47 3b e7 3a
       0.002928477 -1.199986 0.012073992 0.0017641567
000060 aa d1 91 bf 33 e4 82 3d 16 a7 88 3b 9c dc a4 be
       -1.1392109 0.06391182 0.004170309 -0.32199562
000070 67 32 56 be e9 68 51 bd 5a d8 98 3f b9 2d 33 bd
       -0.20917664 -0.05112544 1.1941025 -0.043744776
000080 1a e2 57 bc 9d c3 8d 3d 8f 24 f7 bc 1b a3 46 bd
       -0.013176465 0.06922076 -0.0301688 -0.048495393
000090 6f 01 7d 3c 17 81 64 bc 4c 8a d4 b9 09 cc 95 bf
       0.015442236 -0.013946793 -0.0004053883 -1.1702892
0000a0 a7 14 9d 3c 84 9c e3 3a d3 c7 47 bf fe 05 19 bd
       0.019174887 0.0017365371 -0.7803928 -0.03735923
0000b0 7a 66 c3 3b f6 c3 0e bf ef f0 09 be f8 36 86 bd
       0.005963144 -0.5576776 -0.13470815 -0.06553453
0000c0 26 f5 af 3b 47 20 90 ba 1a 0a d4 3a 80 69 a5 be
       0.0053698 -0.0010995948 0.0016177327 -0.32307053
0000d0 d4 e7 d5 3e 4d 47 1c 3d e3 29 95 bf 44 5d 04 3d
       0.41778433 0.038153935 -1.1653408 0.032315508
0000e0 99 80 21 3b 19 87 0c 3f 51 bf 8d be e4 2c b6 bb
       0.00246433 0.5489364 -0.27685025 -0.0055595506
0000f0 5c f6 18 bb f5 45 37 3b ca 5a 06 3b 0d 4e ab 3c
       -0.00233402 0.0027965282 0.0020500892 0.020911241
000100 2b 6d 6a 3c 47 36 79 ba 24 9d 56 be 30 77 dd 3c
       0.014308254 -0.0009506684 -0.20958382 0.027034372
000110 18 fa 98 3b 1e 8b 5c bb 09 62 19 3c 5d 12 22 3b
       0.0046684854 -0.0033652256 0.009361752 0.0024730184
000120 97 9d c5 be 69 b9 79 be 48 3f 1d bc f7 f9 de be
       -0.38596794 -0.24387135 -0.009597607 -0.43550083
000130 fe 59 5b 3e 6b b1 74 bc ca 3c 73 bb f4 d1 65 bc
       0.21421048 -0.014934878 -0.003711509 -0.0140271075
000140 bd 0d dc 39 ac 50 47 3e 27 fa 80 be d4 0b 6d bc
       0.00041971906 0.19464368 -0.2519085 -0.014468152
000150 41 b3 b0 3e 07 8a c8 3e 7c d5 04 3e 16 be 07 bf
       0.3451176 0.39167807 0.12972063 -0.53024423
000160 b8 04 cd be d0 2a 19 bc a2 6c c2 3e 05 35 3d be
       -0.40042663 -0.009348586 0.37973505 -0.18477257
000170 12 68 e2 bc 16 61 0e bc e2 d1 40 bc 4f 77 57 3b
       -0.027637515 -0.008690139 -0.01176879 0.003287751

actor.0.bias f4 [32]
000000 d6 7e 82 3e 16 f1 8f be c4 a5 1d bf c2 f1 3b 3f
       0.25487393 -0.2811362 -0.61581063 0.7341577
000010 f2 c1 42 3e b6 3d 10 bf a1 57 96 3e fe c2 8e 3e
       0.19019297 -0.56344163 0.2936373 0.27883142
000020 51 8e ee 3e 7b 5d 50 bd aa 57 de 3e f1 28 01 be
       0.46592954 -0.0508704 0.43426257 -0.12613274
000030 54 22 aa be 64 c2 9e 3e 9f cf e4 3e a2 7b 34 bd
       -0.33229315 0.31007683 0.44689652 -0.044063218
000040 b4 ec c4 be 2c 1c 66 bf 83 43 b6 3e 4c d2 84 bf
       -0.3846184 -0.89886737 0.35598382 -1.0376678
000050 6c d8 34 be b8 fb e6 be 0b 27 43 3f 87 17 a4 be
       -0.17660683 -0.4511392 0.7623145 -0.320492
000060 36 22 55 3e d9 37 4f 3f 41 86 b4 be f6 78 94 bf
       0.20813832 0.8094459 -0.35258678 -1.1599414
000070 73 76 34 3e 54 15 07 3f cc 03 6e 3f b0 8a c6 be
       0.1762331 0.5276692 0.92974544 -0.38777685

actor.2.weight f4 [32, 32]
000000 e6 ad ec bc 83 74 6d 39 6a a4 5b 3b 46 1c 16 bb
       -0.028891515 0.00022645485 0.0033514746 -0.0022905036
000010 7c b2 ff bb 96 7f 1b bc 32 bd ae 3c e4 7e 39 3a
       -0.0078032594 -0.009490868 0.02133045 0.0007076098
000020 b0 e4 b3 3b 5d 03 8f bc 3d 83 81 3c 4f d6 76 bb
       0.005489908 -0.017457658 0.01580965 -0.003766436
000030 51 4b 9b bb 60 f5 06 bc 89 b0 02 3b 09 fa 39 bc
       -0.004739203 -0.008237213 0.001994165 -0.011351117
000040 f8 7d 6b bc 6b 4e 57 bc c2 0f d1 3b 42 80 2f bc
       -0.014373295 -0.013141255 0.0063800523 -0.010711731
000050 04 af 36 3b 72 58 97 bb 85 fa 68 bc 84 e5 91 ba
       0.0027875314 -0.004618698 -0.014219885 -0.0011131023
000060 75 45 32 3b 4a bb c7 3b a7 2e 27 3c bc 68 cb 39
       0.0027202044 0.0060953246 0.010203994 0.0003879721
000070 cf b3 c8 3b 2c 4c 87 3a b3 2a 1f ba 19 fb be 3b
       0.0061249505 0.0010322384 -0.00060717313 0.005828273
000080 5c 33 2a bc 59 4a ac 3b 22 90 a4 bc 69 b2 84 bb
       -0.010388222 0.0052578864 -0.02008826 -0.0040495885
000090 84 f9 c3 ba 47 2d aa 3c 34 4b ed bb 61 ae 72 3c
       -0.0014951681 0.020773543 -0.007241631 0.014812083
0000a0 42 c7 28 3c 3e 53 76 3c 98 79 23 3c f5 73 51 bb
       0.010301413 0.015034495 0.009977721 -0.0031959985
0000b0 8a 66 d2 ba 73 f6 5e bc 35 47 4d bc 2e 92 ca 3a
       -0.0016052288 -0.013608563 -0.012529184 0.0015454942
0000c0 02 5b 25 3c 27 fd 0b bc 5b 61 62 bc 8b 32 1a bc
       0.010092499 -0.008544243 -0.013817157 -0.009411464
0000d0 57 8a da bb 55 70 ce 3b af 19 94 bc 2b bf df 3b
       -0.0066693234 0.006300012 -0.018078653 0.006828209
0000e0 70 13 90 bc 9a e4 a2 bc 77 47 6d 3a 75 b1 da bb
       -0.017587394 -0.019884396 0.00090514816 -0.0066739866
0000f0 d7 0b 2e 3b cb bb ff bb 49 58 97 3a 9d b2 06 bc
       0.002655735 -0.007804369 0.0011546697 -0.008221296
000100 66 19 93 3b c4 b3 28 3b 5d 99 d1 3b 62 b1 00 bc
       0.0044891117 0.0025741914 0.006396456 -0.007854791
000110 de b8 53 bc e4 8b 9c ba 32 b8 f9 bb 7e 18 e5 bb
       -0.012922494 -0.0011943546 -0.0076208347 -0.006991445
000120 19 16 98 bb 57 21 3f bc 55 87 7f bb 22 26 12 3c
       -0.004641306 -0.011665664 -0.0038990576 0.008920224
000130 b3 4e a8 bc d1 ed bf ba 2a 0c b0 bb 45 c8 56 3c
       -0.02054534 -0.0014643018 -0.005372544 0.013109271
000140 7d 83 03 bb 87 e7 81 bc ae 0f 1c bc b9 ce 46 bc
       -0.0020067387 -0.015857471 -0.009525223 -0.012134247
000150 46 2b 06 3c 3b 1d a1 3b 42 e3 5e bc 27 b6 ae bb
       0.008189028 0.0049168146 -0.013603987 -0.005331773
000160 38 22 ff bb e0 21 20 3c 6a 9c 1f 39 f4 2a 4b 3c
       -0.0077860616 0.009773701 0.0001522169 0.012400378
000170 8a 86 47 3b ad 0c 49 bc 69 23 4a bc e4 8b 3b 3b
       0.0030445182 -0.012271089 -0.012337544 0.0028617317
000180 72 99 58 3e 22 a1 e5 3b e7 99 5c 3e 60 a0 3f 3d
       0.21152285 0.007007734 0.21543084 0.046783805
000190 b9 70 86 3e e7 cb ea 3a e6 82 d4 3e a6 ae de 3e
       0.26257876 0.0017913551 0.41506118 0.4349262
0001a0 c4 6c 8d 3e b9 fc 47 3e 13 15 2e bf de 43 74 3d
       0.27622044 0.1953 -0.68000907 0.059635036
0001b0 ef 1c 85 3c 04 df c8 3e 5e 9e 80 3e 53 dc 36 3e
       0.016249148 0.39232647 0.25120825 0.17857485
0001c0 39 4d 03 bb 59 42 25 bf 83 9a bb 3e aa e4 11 3f
       -0.0020035042 -0.64554363 0.3664132 0.5698954
0001d0 10 97 cb 3b 37 f9 d4 39 47 cb 00 3e cb 85 dd bb
       0.0062130764 0.0004062147 0.12577544 -0.006760334
0001e0 b8 4a 79 3e 45 76 5b 3d 87 3f 40 3b 80 55 13 3f
       0.24344909 0.053579587 0.002933474 0.5755234
0001f0 45 16 67 be 77 48 96 3e b2 2b 7e 3c ea 83 b1 ba
       -0.22567089 0.2935216 0.015513347 -0.0013543342
000200 99 5d 1e 3a 8f 1a 27 3c 1c 56 b4 bb ac 84 6c bc
       0.0006041169 0.010199203 -0.005503429 -0.014435928
000210 6e bc 89 bb ed bd 1e 3c 1d 51 a1 bc 9a cd ae bb
       -0.004203371 0.0096888365 -0.019691998 -0.005334568
000220 5c 94 85 bb b4 bc 06 bb 10 b1 10 bc 3a 2a 9c 3b
       -0.0040765237 -0.0020559253 -0.0088312775 0.004765776
000230 93 2f 73 b9 8f 8c 67 bc 58 42 98 bc e5 ba bb ba
       -0.00023192009 -0.014132633 -0.018586323 -0.0014322667
000240 87 b8 49 bb b1 27 ba 3b 94 da 46 bc 7e ba 4f bb
       -0.0030780153 0.005681001 -0.012137074 -0.0031696851
000250 17 41 bf ba f0 4f 64 bb 62 e2 09 bc be 93 e3 39
       -0.0014591542 -0.0034837686 -0.00841579 0.0004340689
000260 42 99 12 bc 26 1c 5d 3b 7d 24 c0 3a de d8 bc 3b
       -0.008947672 0.0033738702 0.0014659312 0.0057631573
000270 3c e3 16 bc b7 ea e3 3b 37 b5 01 3c b6 e5 9b 3b
       -0.00920945 0.0069554704 0.00791674 0.0047576083
000280 29 45 d9 bd b1 ae 23 3c 28 cb 06 be 24 4f 94 3e
       -0.106088944 0.00999038 -0.13163435 0.2896663
000290 f8 b7 77 be 97 39 60 3b d7 e8 ad be 56 da a9 be
       -0.24191272 0.0034214014 -0.33966705 -0.3317439
0002a0 5b bf e6 bd dd 3b 0b be 4d 4e 23 3f cc 2a 13 bd
       -0.11266967 -0.13597055 0.6379135 -0.035929486
0002b0 4e 94 e4 3b a2 f8 93 be c1 7f 09 be de d1 b7 bd
       0.006975687 -0.2890063 -0.1342764 -0.08975576
0002c0 41 56 72 3b f1 d7 23 3f 8d 5e 6f be 30 6e fc be
       0.003697768 0.64001375 -0.23375912 -0.49302816
0002d0 e0 0e 50 3a ae 3f fa 3b e3 cc 98 3d e4 34 41 ba
       0.0007936787 0.0076369857 0.07460954 -0.0007370247
0002e0 67 2c 44 be 5c 15 0a 3e de 22 1c bc ea 7b 06 bf
       -0.19157563 0.1348471 -0.009529797 -0.5253283
0002f0 0d 35 87 3e ec 4e 01 be 19 6f aa 3e f5 bc eb bb
       0.26407662 -0.12627763 0.33287886 -0.0071941563
000300 d2 b0 53 3e 25 d6 e8 3b e5 ab 51 3e 37 f2 6c 3d
       0.2067292 0.007105606 0.20475729 0.05784818
000310 8e 4c 92 3e 26 83 30 bb d5 f8 d0 3e e6 65 de 3e
       0.28574032 -0.002693364 0.40814844 0.43437117
000320 34 1f 87 3e 86 97 42 3e ed 2c 20 bf 74 2c cb 3c
       0.26390994 0.19003114 -0.6256855 0.02480147
000330 26 bf d2 bb 31 7e cb 3e 9f fd 7d 3e 9a cc 4f 3e
       -0.006431478 0.39744714 0.2480378 0.20292893
000340 88 95 79 bc f0 2a 1f bf 73 ee b2 3e 9b e2 17 3f
       -0.015233405 -0.6217489 0.34947547 0.5933015
000350 20 3f dc 3b 04 2c ca 3b c5 4e 11 3e d3 c4 af 3b
       0.0067213923 0.006169798 0.14190204 0.0053640394
000360 c2 21 7e 3e 7c b3 45 3d 8a 3f 78 bc 71 8b 1c 3f
       0.24817565 0.048266873 -0.015151868 0.6115027
000370 a1 f2 65 be ab 37 a8 3e e6 fa d0 3c 5d b2 76 bc
       -0.22455837 0.3285497 0.025510263 -0.015057174
000380 71 87 70 bc 43 8e 93 bc 14 0f 25 3c 4a 6d 1d bb
       -0.014680729 -0.018012172 0.010074396 -0.002402144
000390 a7 51 87 3b 58 b5 b9 b8 07 73 13 bc ac 68 de bb
       0.0041296068 -8.855265e-05 -0.008999593 -0.00678738
0003a0 eb 08 c5 3b 7c 6c 4f bb 7d bc 14 bc bc 88 d8 ba
       0.006013026 -0.0031650355 -0.009078142 -0.0016520242
0003b0 d9 03 ee bb f2 e8 bc bc 05 30 b5 bb d6 f1 31 3c
       -0.0072636423 -0.023060296 -0.005529406 0.010860881
0003c0 b3 7c 43 bc f4 a8 33 3c be 37 4b bc 68 d3 d9 3b
       -0.011931586 0.0109655745 -0.012403427 0.006647516
0003d0 88 82 94 3b 24 d0 9a bb 29 71 79 3b 6f 13 7c bb
       0.004532162 -0.0047245193 0.0038061833 -0.0038463732
0003e0 fc b1 c8 3a d9 33 96 bc bb 28 b0 3b e2 f0 99 bb
       0.0015311833 -0.01833527 0.005375949 -0.004697905
0003f0 c7 3c 82 bb 44 da 6c bc 84 46 f5 ba 9e d7 5f bc
       -0.0039745304 -0.014456335 -0.0018713032 -0.013662247

actor.2.bias f4 [32]
000000 55 5d 26 be e6 5b 2b be 1b b5 ee bd aa 57 75 3d
       -0.16246541 -0.16734275 -0.11655637 0.059898056
000010 5c 20 de bd 1e 50 b7 3e 1e 4a ab 3c 8b ca fb bc
       -0.10846016 0.35803312 0.020909365 -0.030736228
000020 a0 45 e7 3d 11 30 d0 bd 99 a1 83 3e 6a 1d 94 3e
       0.11292577 -0.10165418 0.25709227 0.2892869
000030 81 c0 98 bc ce 60 fe 3d bd 10 08 be 6c d6 17 3e
       -0.01864648 0.12420808 -0.13287635 0.14827889
000040 2e 0b 1a 3e 02 ab 60 be 6b 95 88 3e db cc a7 3e
       0.15043327 -0.21940234 0.26676497 0.3277348
000050 8c 5e 6d be 03 be bd bd 87 cd a3 3e 59 e8 95 3e
       -0.23180598 -0.092647575 0.31992742 0.2927883
000060 da 3b b3 3e 78 c5 4b 3d 4a 3f 03 bb fc d3 0d 3d
       0.350066 0.049748868 -0.0020026737 0.034625992
000070 97 ab 84 3e cb b3 d2 bd e2 35 c0 bc f1 69 08 be
       0.25912163 -0.10288199 -0.023463193 -0.13321663

actor.4.weight f4 [1, 32]
000000 78 a7 71 3c bd f9 93 3b 9a 70 0f bc 92 a9 06 3f
       0.0147494 0.004515855 -0.008754874 0.52602494
000010 f0 73 95 3c ca 8c 1e bf 11 f6 02 3f d2 c3 a7 bb
       0.01824376 -0.6193358 0.5115672 -0.005119779
000020 c3 90 01 3f c9 c1 9f bb c2 06 81 bf 01 93 60 bf
       0.50611514 -0.004875396 -1.0080187 -0.8772431
000030 72 5e 62 3b 40 a0 03 3f 5e 5d dd 3b 03 82 06 3f
       0.0034541157 0.514164 0.006755515 0.5254213
000040 5c 52 01 3f de 00 54 3f 35 db 5d bf 80 67 38 bf
       0.50516295 0.82813823 -0.8666261 -0.7203293
000050 2c 61 4d 3f 47 76 4a ba 90 31 2d bf 20 96 5f bf
       0.802264 -0.0007723313 -0.6765375 -0.8733845
000060 41 ca 1c bf 46 83 1d 3f dd 5e 0d 3f d9 8b 08 3f
       -0.61246115 0.6152843 0.55222875 0.5333839
000070 9d 84 83 bf 67 09 bf ba bd 29 ea be bd cb 73 3c
       -1.0274845 -0.0014574946 -0.4573497 0.014880118
